Modulation Classification/ann.pth (torch, 404053 bytes, 8 tensors)

model.0.weight f4 [128, 256]
00000000: d591 91bb f7b7 453d 4642 613d 76eb 49bd
00000010: 5797 a13d ed17 81bd 3eca 773d c85e f33c
00000020: 621e f93b 04e0 bf3c e097 40bd b2eb b63c
00000030: 3a0a 3a3d e541 863d ebaf b2bb aac6 073d
00000040: 638e 84bd 8851 35bc 55bb 893c 5605 b6bc
00000050: 8121 1338 a63b 2d3d 9c54 ab3d c38c f43c
00000060: d007 5f3d 2a80 953d e96d 973c d521 0e3d
00000070: 6476 ad3c df37 7d3d 081b 1f3d 7a44 8e3d
00000080: 718b 0a3c e7b1 983d 0be1 943d c94f c93d
00000090: c535 8d3c 10d4 8d3d d5e4 9f3d 1600 6f3d
000000a0: ec72 a23d eae8 eb3d dfdb e3bc 2ec6 963d
000000b0: 325a be3d 819d 643d 352c d93d bfe4 883d
000000c0: 371e 1d3e 149f ba3d 2fe1 943d 4a9b 013e
000000d0: c2ea 8e3d 8bec f93d b3d6 333e 1a8d 743d
000000e0: 52bd 2b3e ab5b 983d 0b8b af3d b9e6 ac3d
000000f0: f336 c73d cdcf c03d 721b 5d3d 9a2b 433d
00000100: 6065 513d 8778 c83d 5df8 343d a43c a73d
00000110: f16c 973d b9f3 153e bfbc 933d a235 0c3d
00000120: bfc1 863d 4ef6 af3d 5cce d3bc 13da b53d
00000130: 10f7 fb3b 2f1f 19bc 9c10 d53d 668a 7a3d
00000140: e715 9a3d 6cd9 ae3d 7b59 403c d00c c53d
00000150: a617 f1bc b0b3 b63b 29c2 95bb b887 b63c
00000160: 9351 043e 8a10 073e b541 2b3d ddab 803d
00000170: 06a7 8c3d 087b 0b3c bbb2 743d 1c47 953d
00000180: 3abb b7bc e147 393d e8b0 a33d 4893 b13d
00000190: b668 bd3c d9e0 cd3d 64e1 e0bb 6ef0 dc3c
000001a0: ee4b a53b 4b9f abbc a6ae 8d3d 4747 2a3c
000001b0: a717 b2bd 2c8e 1ebd e72a 2f3d 9ead d8bc
000001c0: 8723 443d d0f1 f3bb 7461 173d 7b6c aa3d
000001d0: 4811 613d dca6 343d ea19 cd3c 953f 8a3c
000001e0: 7619 b13d 2a43 233d ada1 0fbd 7a8a 8b3d
000001f0: e50f bc3c 7a53 613d 3cc4 8d3d f4a4 a8bb
00000200: f524 82bd 95ca 03bc 9409 0fbc cc74 0abc
00000210: 9e73 4b3d 24b8 75bc 6b3d 96bd d345 cebd
00000220: e47f 85bd 0a9a 9bbd 709c 993d dc93 893c
00000230: 5ced 0dbd ae8c 89bd 806b a33d 7559 7cbd
00000240: d7fd 28bd 7cea debc 8822 6bbd 99dc 323d
00000250: d083 b7bd 3849 2dbc 91fd f2bc fec4 403d
00000260: 74e3 0dbd f68c 91bd b8c5 50bd d806 05be
00000270: a09b 24be 1495 42bd 9306 6cbd 9125 2abd
00000280: 3bea 18bb f65a f7bd b902 9dbd 4cf5 1cbe
00000290: 0d6c 16bd 5913 84bd bd3a 46be 237b 1dbe
000002a0: 2600 6fbe 71c8 4ebe 50ec 53be 205a 26be
000002b0: 47c2 0bbe ffcb 26be 4820 62be afda 21be
000002c0: 50f6 62be 26f2 5fbe 85c5 17be 5893 3ebe
000002d0: 3085 5dbe 428f 5dbe 9e64 32be a902 4fbe
000002e0: c71c 2bbe f9cb 51be f70e 11be 4ed8 39be
000002f0: 1719 62be d08d 03be a4b8 57be 3f41 62be
00000300: d39c 55be 7f10 3ebe 2607 1cbe 521c 13be
00000310: ee5f f5bd 919c 50be 4f71 1abe 2239 05be
00000320: 4a89 1abe 1316 3bbe ee74 65be d6c5 04be
00000330: ca61 aabd 0fe1 0bbe 8418 05be 8648 e4bd
00000340: acc1 d5bd 051a e1bd 5e28 f3bd bcc0 d3bd
00000350: 3ee3 0dbe 121b ffbd 148d 2fbe c810 f7bd
00000360: 4faf 00be ca11 12be 0250 0dbe 350e b6bd
00000370: a90e 0abe d526 07be 3942 12be 4467 93bd
00000380: 69e6 e1bd bada 84bd a0ae 00be 4a5f e4bd
00000390: a83f cabd 59f9 a8bd 00d8 91bd ab4f 04bd
000003a0: 699c 213c 75e4 703c a09e 9f3c 8738 4bbc
000003b0: 4d97 9bbd e40d 89bd 702a 0cbd 1018 e13c
000003c0: 00ad cd3c d9eb 89bd b296 25bd 7047 8dbd
000003d0: 3d36 e8bd b61a 523d 7db0 943d 23fb e23c
000003e0: 9d0b b0bc 5747 cf3c 75ea 8abd 0a23 eebc
000003f0: 8b95 efbb 3fd4 e63b fc5b ae3d b8ea a93a
-0.0044424334 0.048271146 0.054994844 -0.04929682 0.07890194 -0.063033916 0.060495608 0.029708281
0.007602499 0.023422249 -0.04701984 0.022329185 0.04541991 0.06555537 -0.0054531 0.033148445
-0.064724706 -0.011066802 0.01681296 -0.022219341 3.5078734e-05 0.042293213 0.08365747 0.029852277
0.05445081 0.07299836 0.018485026 0.034700233 0.021174617 0.06182086 0.03884414 0.069466546
0.008456097 0.07455807 0.07269486 0.09829671 0.017237553 0.06925213 0.07807318 0.05834969
0.07932076 0.11519034 -0.027814804 0.073620185 0.09294547 0.05581427 0.10604135 0.06684255
0.15343557 0.09112373 0.07269513 0.12656894 0.0697837 0.1220332 0.1756237 0.059704877
0.16771439 0.07439359 0.08571442 0.08442444 0.097272776 0.09414635 0.053981252 0.047649004
0.05112207 0.09788614 0.04418217 0.08165863 0.07393826 0.14643754 0.07213735 0.034230836
0.06579923 0.08591901 -0.025855236 0.08879485 0.0076893643 -0.009345814 0.104035586 0.061167143
0.07523709 0.08537564 0.011740084 0.096215844 -0.029430222 0.0055756196 -0.004570265 0.022281513
0.12921743 0.13189903 0.04181071 0.0628278 0.06867795 0.00851322 0.059740763 0.07288954
-0.022428144 0.045234565 0.079927266 0.0867067 0.02312122 0.10052652 -0.006862806 0.026970115
0.005044452 -0.02094998 0.06918077 0.01039297 -0.086959176 -0.038709804 0.042765524 -0.026449975
0.047885444 -0.007444598 0.036958173 0.08321472 0.05494812 0.044104442 0.02503677 0.016876021
0.086474344 0.039858975 -0.035066295 0.06813522 0.022956798 0.05501125 0.06922194 -0.005146617
-0.06354705 -0.008043905 -0.008730311 -0.008450698 0.049670808 -0.014997516 -0.07335933 -0.10071912
-0.06518534 -0.0759774 0.07500541 0.016794138 -0.03465019 -0.06716286 0.079794884 -0.06160875
-0.041257706 -0.02721142 -0.05740598 0.04366741 -0.08960688 -0.010576539 -0.029661926 0.047062866
-0.034640744 -0.07106964 -0.05096981 -0.12990892 -0.16074991 -0.047505453 -0.057623457 -0.041539732
-0.0023332972 -0.12077896 -0.07666535 -0.15327948 -0.03672414 -0.06449003 -0.19358344 -0.15379004
-0.233399 -0.2019365 -0.20695615 -0.16245317 -0.1364833 -0.16288756 -0.22082627 -0.15806077
-0.22164273 -0.21869716 -0.14821441 -0.18610895 -0.21632838 -0.2163668 -0.17421195 -0.20215859
-0.16710196 -0.20487966 -0.14165865 -0.1814892 -0.22079884 -0.12847066 -0.21066529 -0.22095202
-0.20860605 -0.1856098 -0.15237102 -0.14366272 -0.11981188 -0.20372225 -0.15082286 -0.13010076
-0.15091434 -0.1827014 -0.22407886 -0.12966093 -0.08319433 -0.13660072 -0.12997633 -0.11146645
-0.104373306 -0.10991291 -0.11872934 -0.103394955 -0.13856217 -0.12456335 -0.17143661 -0.12063748
-0.12566875 -0.14264598 -0.13800052 -0.088894285 -0.13482155 -0.13198407 -0.14283074 -0.07197431
-0.110302754 -0.06487031 -0.12566614 -0.111509874 -0.09875423 -0.08250684 -0.07121277 -0.03230254
0.009863951 0.014702906 0.019484818 -0.012403614 -0.07597218 -0.066921026 -0.03422016 0.027477294
0.025106907 -0.067344375 -0.040426917 -0.06898391 -0.1133847 0.051295005 0.07260225 0.027707642
-0.021489913 0.025302572 -0.067830004 -0.029069442 -0.007311528 0.0070443447 0.085136384 0.0012963628

model.0.bias f4 [128]
00000000: 71a6 d03d 4468 b3bc 11dd a63d 01eb 9b3d
00000010: 61e8 bb3d 94fb 773d 2c9c ef3c ceb1 8e3d
00000020: 109e 853d 22a1 61bd 2e13 c93d b5cc 193e
00000030: af23 9c3d 40d1 9bbc ce8e 35bd ba6c 983d
00000040: 2af0 56bd 4e32 8c3d a816 d83d b02a a33d
00000050: 5515 863d 14fc e2bc 773a 813d 048e fcbc
00000060: 5572 923d 9500 553d 2860 943d cf74 843d
00000070: 4887 e63d ca62 be3d 948a 8dbc 4181 983d
00000080: d84b dc3d e85b f63c 7698 9f3d 868f 45bd
00000090: 6a7f 883d aaf9 0abd 1384 aabc d7ce 99bc
000000a0: 9b9e a73d 16ca 8f3d e9cb 863d 9a5f 32bd
000000b0: 7f65 ff3c f298 23bd 20df 69bd 38f2 ba3d
000000c0: bba9 b23d d0b9 60bd c11e 913d 7944 a93d
000000d0: 71f9 d63d 864f e63d 0231 713d 747e 8bbc
000000e0: 7aa5 03bd c2c6 283e 0e90 6b3d d1fd c83d
000000f0: 9b3e 2f3e 9ad1 abbb 0839 ee3d 8656 4ebd
00000100: 58a0 ef3d dac5 bebc 2314 b1bc 2aeb 4dbd
00000110: 7240 73bd dce3 d63c 30a0 36bd d0bd 183e
00000120: 6c1b 2abd f498 893d 02da b73d 88bd 8abc
00000130: 032b 753d b8f2 3fbd acf1 9f3d e8fa 7f3d
00000140: 200a 54bd 9d7a b33d 441d 7f3d abd8 9e3d
00000150: b6b7 733d 9318 983d c996 bb3d 94f1 2bbd
00000160: 4275 4abd 276a 173d 4458 a63d f066 893d
00000170: 6aaf 48bd 57a6 d33d ceef 3ebd f472 88bc
00000180: 4249 b53d 0f40 8e3d 008c f1bc 7f9f 233e
00000190: 2eb8 32bd 76b8 e93d 449b 923d dbfa 713d
000001a0: f9bb 3f3d b40f 6fbd 51e6 0e3e d4c4 c43d
000001b0: b246 59bd edac 6a3d 041b b9bc 9cbc bcbc
000001c0: 4004 e7bc d39b b33d 14a2 db3d c497 86ba
000001d0: cd8a 81bc c2e9 aa3d 884a 913d f666 5fbd
000001e0: 2841 7fbd 645a cfbc 404e 6c3d a48e 5e3d
000001f0: 78ac b8bc 8c0d 673d 604f bfbc 8519 d13d
0.10187996 -0.021900304 0.08147634 0.07613183 0.09175182 0.060542658 0.029249273 0.06967507
0.06524289 -0.05508531 0.09818111 0.15019496 0.076239936 -0.019020677 -0.044325642 0.07442613
-0.052475132 0.06845532 0.10551196 0.07967126 0.065470375 -0.02770809 0.063099794 -0.030829437
0.07150713 0.05200251 0.07244903 0.06467592 0.112562716 0.09296186 -0.017277993 0.07446528
0.107566535 0.030073121 0.077927515 -0.048232578 0.06664927 -0.033929504 -0.020814931 -0.018775387
0.081845485 0.07020967 0.065818615 -0.043548204 0.031176327 -0.039940782 -0.057097554 0.09128231
0.0872378 -0.054864705 0.07085944 0.08265013 0.10496796 0.11245637 0.058884628 -0.017028071
-0.032140233 0.1648207 0.057510428 0.09814037 0.17113726 -0.0052434923 0.116319716 -0.050375484
0.11700505 -0.023287702 -0.021616047 -0.050273098 -0.05938763 0.026231699 -0.04458636 0.14916158
-0.041530058 0.067186266 0.089771286 -0.016936079 0.059855472 -0.046862334 0.07809767 0.062495142
-0.05176747 0.08763621 0.06228377 0.0775617 0.059501372 0.07426562 0.09159619 -0.041978434
-0.049428232 0.03696647 0.08122304 0.06709087 -0.048995413 0.10334461 -0.046615414 -0.016656376
0.088518634 0.06945812 -0.029485703 0.15978812 -0.04363268 0.11412136 0.07158521 0.059077125
0.046810124 -0.058364585 0.13955046 0.096078545 -0.053045936 0.05729382 -0.02259589 -0.023039155
-0.028200269 0.087699555 0.10724273 -0.0010268618 -0.015813256 0.08345367 0.07094294 -0.05454155
-0.062317997 -0.025311656 0.057691813 0.05433525 -0.022543177 0.056409404 -0.023353279 0.102099456

model.2.weight f4 [256, 128]
00000000: 3e9c 4b3d e096 07bd 6d5d 23bd a9c1 1a3e
00000010: 9f08 7e3d e802 01be c7ee e1bc bd1a b63d
00000020: 0578 803d 5aca 793d b0ad b03b 4f0b 133e
00000030: 092c ae3c c9d6 51bc 5508 883d 8f09 053e
00000040: 5429 9ebc e346 203e a0a5 c1bd a214 053e
00000050: 6fc5 86bc ecce b3bd 9022 01be 40a1 aebb
00000060: dbf0 98bd bd28 84bd e38c ad3d a7ed 473b
00000070: f6d8 383e 0041 e2bd 96b7 293d 3944 d8bd
00000080: c887 223e 31d4 b5bd 8a16 883d 5eef 733d
00000090: 3870 803d 28b4 4cbc 4804 b2bc 5a30 a6be
000000a0: 2bbd eeb8 8d17 34bc d2f3 1b3e 4ad0 85bd
000000b0: ce7c c9bd b528 acbd 4e58 353d 30e0 643d
000000c0: 1cbf 1b3e fc6c 0dbd ae62 a1bb 8f87 3f3d
000000d0: 9ffa 1c3e 55a2 f63d b48f 98bd d885 193c
000000e0: c0b4 b13c 3705 0a3e 1941 3bbc 2f0c e2bc
000000f0: 58da 4e3d e1ba 4ebf 1e96 233e 4768 7abd
00000100: 9d50 ae3d 5697 603d 943a 2238 4ceb 6cbd
00000110: 445b 9fbc 2688 3fbd 38a2 bdbc fb7c 423d
00000120: 00b5 5abd 23e5 e53c 0117 a03d 487c 6abd
00000130: de1a 38bc cdc7 913d 5c72 1dbd 4d21 8cbd
00000140: 5cf1 b3bd ab2d 063d 0ca0 0c3d 6d96 7b3d
00000150: a767 97bd f7b5 a33c 09db 963c 7da1 86bd
00000160: a8f5 a9bc 7673 43bd 8eb0 a7bc 40e6 81bd
00000170: 2d58 29bd 8361 853d 48b5 53bd 091d 9bbd
00000180: 5b32 e5ba 4998 f3bc a0b6 a2bc 1099 5d3d
00000190: 28a3 f6bc 0441 a43c f230 15bd ca94 eabd
000001a0: 7a97 d1bc 426a 003d b943 c43d 53a4 af3d
000001b0: 921c 1a3d 3e4b 02be 70fd 00bc a1b0 b5bd
000001c0: 00c8 44b8 8bbb 143e 7710 353e 87c3 ee3e
000001d0: 3275 56bd e61b 2b3e 8eee e13c 303d 713c
000001e0: ea26 3f3d 10f7 47bd fd85 2ebc 8350 fcbd
000001f0: 9842 32bd 906a cabd 14c5 95bc c852 fc3d
00000200: e7ed ad3c f257 5a3d a36e 1d3e 3487 eebc
00000210: e303 aebd 2a5a 5f3d 952c 083e 60d2 8dbd
00000220: 86a0 90bb 869a 563d 06e0 853d 1eab 30be
00000230: 83bc 143e 3af3 98bd a4d4 ec3c 0ec9 9cba
00000240: 7809 1f3c e9e7 e8bd 1d83 b53d 7548 ce3d
00000250: 6f51 d43d f109 a93d 57f3 e73d 16a6 81bd
00000260: 5c8c a03d 56ce 363e d665 873c 0f2e 173e
00000270: 2bd2 eabb f9f2 953d 106f 423c 598c 093e
00000280: a08d ee3b d8d7 ee3d 62b4 4d3d 64ab acbc
00000290: 0504 98bd c0b8 f13c f22d 9ebd a35f 783f
000002a0: 2dd6 613d 0af2 f63d 54e6 c6bd 9b54 5ebd
000002b0: 347a 1d3e b65a aebd b0a2 d3bb 937b ecbc
000002c0: ddd8 28bd 3ef3 503d a6f6 793d 227f eb3c
000002d0: 92bd 05be 30be 5abd fed7 523e a053 943b
000002e0: 2ca4 43bd 1b4e 143c 1324 703d 972b b93c
000002f0: 9d99 be3b 4fc5 6e3f 2660 803d a223 153d
00000300: 0aa7 d0bc 005c 39bd cc15 9d3d 864f 73bd
00000310: 5a50 4e3d 73a8 223e d502 a93d 4619 b2bc
00000320: 64ca 87bd 243a 343e fc38 14bc 3860 1cbc
00000330: 8fe8 bb3d 6aa9 373d 481e 023e fab0 403e
00000340: 4a23 a5bd fe79 c83d a767 113e 581f 8ebd
00000350: ac93 353e 960e 733d a399 c13d 1f16 943d
00000360: d386 5dbd 5a32 733e e3e0 a73d 3af4 3e3e
00000370: c8eb 92bd 9496 a8bc 180b a0bc d1eb a33d
00000380: f753 033e a668 5b3d ef9c 39bd 8ac8 2eba
00000390: 2624 263d 49d5 e6bb 94f1 c63b 733f 993d
000003a0: 1747 ba3d eb54 9dbd 499c bbbb 3a8c 863c
000003b0: 7507 a5bd c1e0 993d 40e3 89bc dd87 b0bc
000003c0: 0889 8cbd bfa8 57be 443d 74bd 4df1 80bf
000003d0: 4ef7 b2bd 0d7d 953d 7a62 c1bd 6b71 9b3d
000003e0: 2b09 2dbd 4eba 2f3d 4b5b 5f3e 3c08 3a3d
000003f0: 00ba cc3c af6f 083e 584d 2a3c 1c2d c6bb
0.04970955 -0.03310287 -0.03988402 0.15112938 0.06201994 -0.12598765 -0.027579678 0.08891819
0.06272892 0.060983993 0.005391799 0.14359783 0.021261232 -0.012807556 0.06642214 0.12991928
-0.019306816 0.15652041 -0.094554186 0.12996152 -0.016451566 -0.087797016 -0.12610841 -0.005329281
-0.074678145 -0.06453083 0.08474138 0.0030506642 0.18051514 -0.11047554 0.041434847 -0.105598874
0.15872109 -0.08878363 0.06644924 0.05955445 0.06271404 -0.0124941245 -0.021730557 -0.32458764
-0.0001138396 -0.010991943 0.15229729 -0.065338686 -0.09838258 -0.08406202 0.044273667 0.055877864
0.15209621 -0.034527764 -0.0049250936 0.046760138 0.1532998 0.12042681 -0.07449284 0.00937029
0.021692634 0.13478552 -0.011429095 -0.0275937 0.050501198 -0.80753905 0.15975234 -0.061134603
0.085114695 0.054831825 3.8678365e-05 -0.057841584 -0.019452699 -0.0467607 -0.023148641 0.047482472
-0.05339527 0.028063362 0.07816888 -0.05724743 -0.011236874 0.07118187 -0.03843914 -0.06842289
-0.0878627 0.032758396 0.03433232 0.061422754 -0.07392817 0.019984229 0.018414991 -0.0657377
-0.02074702 -0.047717534 -0.02046993 -0.06342745 -0.041343857 0.065127395 -0.051686555 -0.075738974
-0.001748632 -0.029735701 -0.019862473 0.05410105 -0.030107096 0.020050533 -0.03642363 -0.114541605
-0.025584925 0.031351335 0.095832296 0.08576264 0.037624903 -0.12724015 -0.007872924 -0.0887158
-4.6916306e-05 0.14524667 0.17682062 0.4663355 -0.05235786 0.16709861 0.027579572 0.014724061
0.04666797 -0.0488196 -0.0106520625 -0.12320044 -0.04352054 -0.098836064 -0.01828245 0.12320477
0.021231605 0.053306527 0.15374236 -0.029117204 -0.08496835 0.054529347 0.13298257 -0.069248915
-0.004413667 0.05239346 0.0653687 -0.17252776 0.14525037 -0.07468267 0.028909989 -0.0011961774
0.009706847 -0.11372358 0.088628985 0.10072414 0.10367095 0.08253849 0.1132571 -0.063305065
0.078392714 0.17852148 0.016528051 0.14763664 -0.0071661673 0.07321734 0.0118673 0.13432445
0.0072800666 0.11662263 0.050220855 -0.02107782 -0.07422642 0.029507041 -0.07723607 0.9702093
0.055135895 0.12057884 -0.097119 -0.054279905 0.15378648 -0.085133955 -0.006458603 -0.028867519
-0.041222442 0.051013224 0.061026238 0.028747145 -0.13060597 -0.053404033 0.20590207 0.0045265704
-0.04776399 0.009051825 0.058628153 0.022603793 0.005816652 0.9326982 0.06268339 0.036410935
-0.025470275 -0.045253754 0.07670173 -0.05940201 0.050369598 0.15884571 0.08252493 -0.021740567
-0.066304 0.17600304 -0.009046789 -0.009544425 0.091752164 0.0448393 0.12706864 0.18817511
-0.080633715 0.09788893 0.14199696 -0.06939572 0.17732114 0.059340082 0.09453132 0.07230782
-0.054083657 0.23749676 0.081971906 0.18647853 -0.07173878 -0.020579614 -0.01953654 0.08003963
0.12824999 0.053566597 -0.04531568 -0.0006667456 0.040561818 -0.0070444685 0.006071279 0.07482805
0.090955906 -0.076822124 -0.0057254178 0.016424287 -0.08058063 0.075135715 -0.016831994 -0.02154916
-0.06862074 -0.21060465 -0.05962874 -1.0073639 -0.08738576 0.07299242 -0.09442611 0.07589992
-0.04224507 0.042902283 0.21812169 0.04541801 0.024991035 0.13323854 0.010394417 -0.006047858

model.2.bias f4 [256]
00000000: f0a2 fa3d 9ccc 27bd e92e 9cbd 182c b93d
00000010: 1bf2 40bd 862b 233e d26c 2cbd 040f 6ebd
00000020: 6b0c 61bd cae4 2dbd be58 d53d db95 a23d
00000030: 4ae3 b13d c6fc 073e 10a9 adbb 0d99 a6bc
00000040: f283 193e c074 1b3e 6ae5 1b3e 8d90 32bd
00000050: 8450 dcbc 91e7 a6bd 87bc d63d 7170 ba3d
00000060: 995e be3d d031 6abd 3220 eb3d 1cef e23d
00000070: be23 993d b436 153e 649a 1cbd 9c6a 083e
00000080: c6eb cb3d 2ba8 8f3d 4121 66bd 7c77 18bd
00000090: c369 ef3d 9ae4 09bd cac7 1fbd 61f7 a8bd
000000a0: 31b4 b5bc dfac 143e 5f5c d33d 886f d13d
000000b0: d324 c53d c4ea ccbc c066 8cbd e46f a13d
000000c0: 85b7 9cbd 83a7 eb3d f7cd 2d3d 735e 0b3e
000000d0: f0ec c43d 081d 093e f1b6 e23d 6b1c d8bc
000000e0: ea7a acbd 73a8 30bc 08d0 443d 1c86 b9bc
000000f0: 2be2 eb3d 8890 fb3c f018 033e 1842 1dbc
00000100: d28f 2ebd 3972 053e 97d0 153d 540a 45bd
00000110: 6e35 c23d b241 f03d 74e5 a2bd 1340 133e
00000120: a56c b13d 3d29 a5bd 2c96 f03c ebf5 b2bd
00000130: 5687 d93d 3e44 d23d a285 2dbd abf4 ba3d
00000140: 9a8a 153e ad31 2d3d e8b1 98bd 6892 e33d
00000150: f2ea e83d aca8 a2bc 8941 77bd e494 e43d
00000160: 26b0 fe3d ddd7 b93d f659 c73d 179d dd3d
00000170: a71b ff3d f601 ba3d e2da 863d 0019 82bb
00000180: 47ae 163e 55f8 1dbd 63f7 aebd c095 1e3e
00000190: 97dd fd3d 3834 05bd 7f98 fb3d 41fa 0f3e
000001a0: cbc0 033e 568f 3dbd ea94 783d 7058 043e
000001b0: d7b2 0b3e 21b1 13bd da30 75bd 1860 59bd
000001c0: c830 9c3d 7a5f 83bd 0b30 34bd ff86 b53d
000001d0: 5a30 963d 8ee0 563c 7271 f33c d426 393c
000001e0: 9857 09bc a668 febc b5a4 243e ee19 cf3d
000001f0: 71af 03bd 8af6 7ebd f1b8 eebb a62f cfbd
00000200: 8367 c13d 78d6 dc3d ba54 e2bc 12c8 043e
00000210: e110 babd 8000 7bbb 351d d0bc 6b5c 843d
00000220: 5507 063e 5229 0a3e a5b4 c93d 6438 dc3d
00000230: 444a 2ebd 0d21 0b3d c097 263e 14b4 a13d
00000240: 5a77 5cbd cd45 66bc a4b0 bdbc 235e 743d
00000250: f390 1fbd 8777 c93d 9dcf 1b3e c810 f13d
00000260: 8255 9fbd cc4c e1bc 1b25 093e 14cf 53bd
00000270: 2f04 3bbd b3ed e7bc 6f8f c53d 44ed bebd
00000280: 8591 223d ec95 e23d f68c 1a3e 8371 1e3e
00000290: ea4b 08bd 12a9 82bd e77d c83d 764d e23d
000002a0: fe09 8d3d e7a7 b93d 6124 0a3e 209b 9abd
000002b0: c9f0 e43b ca51 81bd 9983 003e 8875 a13d
000002c0: dea6 cb3d bd87 4c3d e6c4 ebbc c227 f5bc
000002d0: 6648 82bd 3bd2 023e 1b9e 01bd 87e1 a8bc
000002e0: 0c2c 053e ad31 5ebd 912d d23d 961e d33d
000002f0: b9fe 98bd 45d4 a3bd 10e7 d4bb 1888 1a3c
00000300: 774c e13d 083a 173e ebf2 2cbd 75e0 a7bd
00000310: c551 64bd 17ca 263e 154c d83d f845 71bb
00000320: 9441 923d dd93 133e 7b77 a73d a8d9 fa3d
00000330: 1604 b4bd 6fe6 da3d 107e 8f3d 2e74 1b3e
00000340: 1c24 433d b005 833d ade1 9fbb 19e9 853d
00000350: fcb1 9bbd 441f 09bd 8948 863d cd96 ca3d
00000360: 15b4 a23d 9977 aebd c60e 04bd 048a 8dbd
00000370: f803 003e 24ae 10bd 7c2a 0d3e cabf 1bbc
00000380: 7c12 0dbd 7236 b4bd 5883 82bd b923 123e
00000390: 8260 e43d fe87 cfbc d53b 69bc 7c61 30bd
000003a0: bd3a 9ebd 8fdd 9dbd 0ac9 a4bd b743 abbd
000003b0: b82c 0a3e 1b65 bdbd 40e6 2bbc 3843 863d
000003c0: a95e be3d 5244 0a3e 5838 ef3d afbc 38bd
000003d0: ea32 793d 9d58 42bd a33a 013e 1c0e ea3d
000003e0: d979 df3d de47 b9bd 696b 5bbd d2c0 fcbc
000003f0: 0ed6 f53d 34e7 063e 4e75 41bd cb47 4cbd
0.12238109 -0.040966615 -0.07626135 0.09041613 -0.04710589 0.15934572 -0.042095967 -0.05811979
-0.054943483 -0.04245452 0.10417317 0.07938739 0.0868593 0.13280019 -0.005299695 -0.020336652
0.1499174 0.15181255 0.15224233 -0.043594886 -0.026893862 -0.081496365 0.104851775 0.09103478
0.09295387 -0.05717641 0.1148075 0.11080763 0.074775204 0.14571649 -0.038233176 0.13321918
0.099570796 0.07014497 -0.056184057 -0.037223324 0.11690094 -0.033665277 -0.039008893 -0.08250309
-0.022180649 0.1451907 0.10320353 0.10226351 0.09626164 -0.025014289 -0.068555355 0.078826696
-0.07652191 0.1150656 0.04243275 0.13610248 0.09615505 0.13389981 0.110700496 -0.026380738
-0.084218815 -0.010782349 0.048049957 -0.022646956 0.115177475 0.030708566 0.12802482 -0.0095982775
-0.042617626 0.13031854 0.03657588 -0.048105553 0.09482847 0.117312804 -0.07953921 0.14379911
0.086633004 -0.08064506 0.029368483 -0.087383114 0.106215164 0.102669224 -0.04236377 0.09128698
0.14603654 0.042283703 -0.07455808 0.11111909 0.11372937 -0.01985582 -0.060365234 0.11161211
0.124359414 0.09074376 0.097339556 0.10820978 0.12456446 0.09082405 0.06584717 -0.0039702654
0.14714919 -0.038566906 -0.08543279 0.15486813 0.123957805 -0.032520503 0.12284946 0.14060308
0.12866513 -0.046279274 0.06068889 0.12924361 0.1364244 -0.036057595 -0.05986104 -0.053070158
0.07626492 -0.06414695 -0.04399113 0.08863639 0.07333441 0.013115061 0.02971718 0.011300761
-0.0083827 -0.03105576 0.16078456 0.101123676 -0.032149736 -0.062246837 -0.0072852303 -0.1011651
0.094435714 0.10783094 -0.027628291 0.12966946 -0.09085251 -0.0038299859 -0.025404552 0.0646294
0.13088734 0.13492325 0.09848908 0.10752943 -0.042551294 0.033967067 0.16268826 0.07895675
-0.05382476 -0.014054728 -0.023155518 0.05966009 -0.038956594 0.09837251 0.15215917 0.11770779
-0.07779981 -0.02750244 0.13393061 -0.051711157 -0.045658287 -0.028311586 0.096464984 -0.093225986
0.03968956 0.110637516 0.15092835 0.15472989 -0.033275522 -0.06379904 0.09789639 0.11049931
0.068866715 0.09065228 0.1349044 -0.07549119 0.0069867116 -0.06314428 0.125502 0.078837454
0.09943937 0.049934138 -0.028780412 -0.029926185 -0.06361465 0.12775509 -0.03164492 -0.020615352
0.13005084 -0.054246593 0.10262597 0.10308568 -0.074704595 -0.079994716 -0.0064972714 0.009431861
0.11000913 0.14768231 -0.042223852 -0.08197109 -0.055742044 0.16288029 0.105613865 -0.0036815386
0.07141414 0.14411874 0.08177086 0.12248546 -0.08789842 0.10688483 0.070064664 0.15181038
0.04764186 0.06397569 -0.0048791976 0.065386005 -0.07602307 -0.033477083 0.06556804 0.09892044
0.07944504 -0.08518905 -0.03224065 -0.0691109 0.12501514 -0.035322323 0.13785738 -0.009506175
-0.034441456 -0.08799447 -0.06372708 0.1427144 0.1115122 -0.0253334 -0.0142354565 -0.04306172
-0.07726047 -0.077082746 -0.08046158 -0.08362525 0.13493621 -0.092478 -0.010491908 0.0655579
0.09295399 0.13502625 0.116806686 -0.045101818 0.06083957 -0.04744779 0.12620024 0.114284724
0.109119125 -0.09046911 -0.05356923 -0.030853663 0.12003718 0.13174134 -0.04723101 -0.049873155

model.4.weight f4 [128, 256]
00000000: dbd7 603d b332 e53e 74c4 99bc a6fd 39be
00000010: fc44 3b3d 32fd 7a3d 9872 5bbc e02d 42bc
00000020: 2808 72bc a0c7 ec3c 1911 5e3d f5db aa3c
00000030: 3858 30be 5f5c 6bbc 5c9a ab3c 8efc 9bbc
00000040: 29b6 023d 685f 8f3d 1c05 a93d 28f3 3dbc
00000050: 1cb1 68bd 124d 6dbd 237b f23d d439 483e
00000060: 54ad a5bd 0044 ab3a 8561 8dbd 79be 0cbe
00000070: 65e5 eabd ec66 423d bc08 0fbd 5abe 56bd
00000080: 8e6a ae3c e25e 8a3d 8072 f63c 0b9a 5c3d
00000090: 1374 063d 9e03 123d 6344 e9bb c601 813c
000000a0: 5f6f 903d 9692 c53d 0fa9 14be 1bdb 053e
000000b0: 81ce 883d 765a 5fbd 8020 6bbb 8259 74bd
000000c0: 56b7 d33c 4fa2 c8bd f795 f33d c9bf 08be
000000d0: 2bf4 b13d 2175 c4bd dc38 fd3d 0974 233c
000000e0: 7401 cbbc 54a4 4abd b68d 613e ac5f 74bd
000000f0: 2883 a73d fab4 f6bc 326c 973d 3880 ef3e
00000100: 54ef 0d3d de7c a33c 9842 fc3e 6c7a 68bd
00000110: 3a58 2abd 3cd3 573e a836 da3c fe8f a73d
00000120: df4f bdbd 704f bcbb 0dc1 063d ac68 8e3c
00000130: b404 013e b91c ee3c 3833 ec3c 2a5a 0dbe
00000140: 98cf b13d d726 f13e f191 a3bc 1ffd 8dbd
00000150: 0ecd a23d a5b7 2f3b 8cd1 493d 48ef a33d
00000160: a444 09bd 3499 febd 9fb6 013e 1f03 b3bd
00000170: 7593 8b3d 53b5 13be e3c0 57bd 6803 2a3c
00000180: 0be1 c83d 809c f5bb fb9a 2a3c 70f8 b6bd
00000190: 98ae 88bc 1ee2 ba3c d478 bd3d 2dbb dfbd
000001a0: 23ea 81bd c8f6 6c3c bb78 44bd 88ea 783e
000001b0: f953 a73d 268c e63b 10fa c9bb 4078 99bc
000001c0: b843 57bd 9031 ff3b 1465 f8bc 5285 7a3e
000001d0: 037e 09be 7069 073c 7555 b53d 8c6a dabd
000001e0: 9816 463c 7751 1c3d 0933 563d 70a1 b1bd
000001f0: 64e5 4a3d 7c64 f73c 0d30 013d ed31 7fbc
00000200: cf73 9abd adb3 15be 97c1 bfbd 75a7 a73d
00000210: 1f4f afbb 3c47 a5bc 2493 da3c 9e58 0f3e
00000220: d5b4 bebd 370a cdbd 26ff 0f3d eead 21be
00000230: f2d2 fabb 263a f23c 2690 983d 7067 21bd
00000240: 2d98 36bc a24f bf3c 0027 4fba 1f68 753d
00000250: c0e1 b4bb 21ea 973d 9370 8e3c 9684 af3d
00000260: 4abd 3fbd 88a2 5ebd 5730 fbbd 1477 cd3c
00000270: fc05 803c f1d4 29bd f2c4 b73c 05c5 943d
00000280: 971d 93bd b635 92bc e63b d8bd 3a22 08be
00000290: d184 83bd 6c33 e6bc f94b 633e c4df 0bbe
000002a0: c576 c9bd 8085 0f3d 869a 5cbd 562d ec3c
000002b0: 6894 d13e 6012 8c3c 2301 a2bc aa4a 94bd
000002c0: 47bf 013e b681 1b3e 5640 fb3e 3b83 5b3d
000002d0: ecb7 29bd ff1e 833e 9011 d83c 3e16 8f3c
000002e0: 88d3 a03d c611 cdba 58cd 0f3e b805 86bd
000002f0: 5c09 703d 1048 333d bcb9 f63c f69b 5f3d
00000300: 1cf6 8abd d3e5 4b3d 2632 68bd 0038 503d
00000310: 7ac1 b13e 5a50 823d 82ab dd3d d07b 8c3c
00000320: 7683 29be cd55 fa3d 3c7c 153e c41b d03d
00000330: 3eb4 55bd e397 bd3d 053e 2abe 938d b73c
00000340: 4927 9e3e 945c b3bd de5d 55bd 3442 a83d
00000350: 80f3 b23a 60c6 40bc 0bd1 a8bd d248 733e
00000360: c49c 193e 742f a83c 7e2d 493d c3bd a03b
00000370: 0f36 aa3c 32e6 1bbd 7234 b7bb 52d4 df3b
00000380: d8c3 f6bc 202d 4dbb 34c9 333d ed8f 943d
00000390: 3a65 9d3d a0d4 483d 2375 30bd f803 25bc
000003a0: b4d1 a8bc 15c7 8d3c 406b bf3c 38ec 1c3c
000003b0: 9279 a93d 8818 7cbd 60e9 663d e7f5 f73d
000003c0: 3aff b7bd c43e a5bd 03a3 6c3d e44a 993c
000003d0: 48d3 c63d 20ae a63b b5e7 1fbe 3e84 3dbd
000003e0: 528a 9e3d e8c5 3e3c 54e2 943c 21a6 f53e
000003f0: 9d87 663c 1c4e fa3d 08aa 3e3d 6056 44bc
0.054893356 0.44765243 -0.018770434 -0.18163165 0.045720086 0.061276622 -0.0133940205 -0.011851758
-0.014772452 0.028903782 0.054215524 0.020856837 -0.17221153 -0.014365285 0.020947628 -0.019041326
0.031912003 0.07000619 0.08252928 -0.0115936175 -0.05680953 -0.057934828 0.11839893 0.1955331
-0.080897 0.001306653 -0.06903366 -0.13744535 -0.11469535 0.047461435 -0.03492044 -0.052427627
0.021291044 0.06756379 0.030083895 0.053857844 0.03282554 0.03564798 -0.007118748 0.015747916
0.07052492 0.096471 -0.14517616 0.13071863 0.066800125 -0.05452963 -0.0035877526 -0.059655674
0.025844257 -0.09796583 0.11893838 -0.1335441 0.086891495 -0.09592653 0.12364361 0.009976395
-0.024780966 -0.04947312 0.22026715 -0.059661552 0.08179313 -0.030115593 0.073936835 0.4677751
0.03465207 0.019957002 0.49269557 -0.056757376 -0.041588046 0.21076673 0.02663739 0.08181761
-0.0924375 -0.0057467744 0.03289895 0.017383896 0.1259945 0.02906643 0.028833017 -0.13803926
0.086821735 0.47099945 -0.019967051 -0.06933045 0.07949267 0.0026812342 0.049272105 0.08004624
-0.033512726 -0.12431565 0.1266732 -0.0874083 0.068152346 -0.14424638 -0.052674185 0.010376789
0.098085485 -0.007495463 0.010412927 -0.089341044 -0.016684815 0.0228129 0.09251562 -0.10924373
-0.06343486 0.014463134 -0.0479667 0.24308217 0.081703134 0.00703575 -0.006163843 -0.018734097
-0.052554816 0.0077878907 -0.030321635 0.2446492 -0.13426976 0.008264884 0.0885419 -0.106648535
0.012090348 0.03816363 0.052294765 -0.0867337 0.04953517 0.030199282 0.031539965 -0.015575868
-0.0754162 -0.14619322 -0.09363096 0.08186237 -0.005350008 -0.020175569 0.02668149 0.13998649
-0.09311835 -0.10011714 0.035155438 -0.15789005 -0.007654541 0.029568743 0.07449369 -0.039405286
-0.01114468 0.023353402 -0.0007902235 0.05991375 -0.0055200756 0.074177034 0.017387664 0.08570211
-0.04681138 -0.05435422 -0.122650795 0.025081195 0.015627854 -0.041462842 0.022432778 0.07264141
-0.07183378 -0.017847877 -0.105583 -0.13294306 -0.06421817 -0.028100692 0.2219695 -0.13659579
-0.098371066 0.035039425 -0.053858303 0.028830212 0.40933537 0.017098606 -0.019775933 -0.072408035
0.12670623 0.151862 0.49072522 0.053591948 -0.041435167 0.25609586 0.026375562 0.01746666
0.078528464 -0.0015645556 0.14043176 -0.065440595 0.058602676 0.043769896 0.030117862 0.054592095
-0.06785223 0.049779724 -0.05668845 0.050834656 0.34717923 0.06362982 0.10823728 0.017148882
-0.16554055 0.122233965 0.14598173 0.10161546 -0.052173845 0.09257486 -0.16625221 0.022406375
0.30889347 -0.08757892 -0.05209147 0.08215752 0.0013652891 -0.011766046 -0.08242997 0.23758247
0.15001208 0.02053044 0.04911565 0.004905434 0.02077773 -0.03806133 -0.0055909688 0.0068307305
-0.030122682 -0.0031307414 0.043893054 0.07254014 0.07685323 0.0490309 -0.04308046 -0.010071747
-0.020607807 0.017306844 0.02336657 0.009577803 0.08275141 -0.061546832 0.056374907 0.12107449
-0.089842275 -0.08068612 0.057772648 0.018712468 0.097082675 0.0050866753 -0.15615733 -0.046268694
0.07741226 0.011643864 0.018174328 0.4797831 0.014070419 0.122219294 0.046548873 -0.011983484

model.4.bias f4 [128]
00000000: e038 6b3d 5787 e13d a8af 253d 2dc5 56bd
00000010: 5276 e1bc c977 943d 92e8 013d 9699 7e3b
00000020: af65 c73d 3e04 ec3d 5e0d 833d 2c4e 033e
00000030: f112 3bbd 2d5b 21bd b0d1 c63d a32e 31bd
00000040: 78a3 e6bc 19b7 9d3d b127 a63c f074 6ebd
00000050: 189d 5c3d a8be 1c3c 172b 983a 18b4 4b3d
00000060: 804b ee3a 528b 93bd 0713 fd3d cce4 a73d
00000070: fe92 4fbd a01e 4c3b 4013 e63c 3ca0 b53d
00000080: 16ff bd3d 444d 6ebd 9ab8 03bd 90ac e43d
00000090: 16b4 fabc bc58 57bd a11e cb3d 473c 00bd
000000a0: e068 af3b d495 11bd 6a45 2bbd 78b6 adbc
000000b0: 8c24 633d 53f3 e13d fe7b 863d 128e 26bd
000000c0: 0227 21bd 781e 7f3c 7bea db3a fe2b 063d
000000d0: e7f5 9b3d 67ee 583d f69b 57bd 3fcb b9bc
000000e0: 428b 72bc 07bf b83d 5d63 053e 84c4 6f3d
000000f0: f95f 22bd ee05 b63d 358c 26bd f693 773d
00000100: 562d d03d 9000 4ebc 66d7 763d eff0 963d
00000110: 7a89 37bd 1682 923d 7fe6 963d 4bfb afbd
00000120: 0c59 2abd b82c 7c3c f5c6 3b3d 444e 1bbd
00000130: 8d62 6e3d 5457 ea3d fb49 babc 7efa 9c3d
00000140: d2f0 203c 805f f23d 7392 87bc 0c01 6e3d
00000150: 5b22 c13d 9afc 0dbd e890 8cbc 80f3 74ba
00000160: 66e6 21bd f0bf 97bd a047 c6bc 16c3 a63d
00000170: e8ff aebc e3f4 c0bc cead 82bd 4b6c 3e3d
00000180: c718 6bbd 9f5b 0b3b 2db4 ffbb 93f4 b33d
00000190: 4ffc 613d b89a 40bd 0a58 61bd 4030 4ebd
000001a0: 7c50 9bbc 0d42 5abd 2076 0fbd 146f e4bc
000001b0: 60ee 233d dd6f 99bc 0d6a 7cbd fae4 25bc
000001c0: 69f3 03bc cc0d ca3d 64d2 d83c 6063 103d
000001d0: 724f 39bd ec43 8dbc 3180 e7bc 87b4 63bd
000001e0: 58c8 9b3d 50a5 6dbc e3cf 0abd 864e 37bd
000001f0: 41ba 1d3d 485c 373c 4eb6 e33d 605e 713d
0.057427287 0.11012142 0.040450722 -0.052434135 -0.02752224 0.0724941 0.031715937 0.0038848869
0.097361915 0.11524247 0.06399034 0.12822789 -0.04567236 -0.039393593 0.097079635 -0.043257367
-0.02815412 0.07700939 0.020282598 -0.05821699 0.053860754 0.00956694 0.0011609521 0.049732298
0.001818046 -0.072043076 0.12357145 0.081979364 -0.050677292 0.0031146184 0.028085351 0.08868453
0.092771694 -0.058179155 -0.03215847 0.11165726 -0.03060345 -0.052574858 0.099179514 -0.031307485
0.0053530782 -0.035543278 -0.041814245 -0.021205172 0.055454776 0.110327385 0.065666184 -0.040662833
-0.03934384 0.015571229 0.0016778255 0.032756798 0.076152615 0.052961733 -0.05263897 -0.022679923
-0.014803709 0.090208106 0.13026185 0.05853702 -0.039642308 0.0888785 -0.040661056 0.06044384
0.10164897 -0.012573376 0.060264014 0.07370173 -0.044808842 0.07153718 0.073681824 -0.08592852
-0.041588828 0.015391521 0.045844037 -0.037916437 0.058199454 0.11442438 -0.022740355 0.07664965
0.009823041 0.118346214 -0.016549325 0.058106467 0.09430381 -0.034664728 -0.01715894 -0.00093441457
-0.039526366 -0.07409656 -0.024204075 0.081426784 -0.02136226 -0.023554271 -0.06380807 0.046489995
-0.057396676 0.0021264327 -0.007803461 0.08786883 0.05517226 -0.04702255 -0.0550156 -0.050338984
-0.018959276 -0.053285647 -0.035024762 -0.027884997 0.040022254 -0.018730098 -0.061624575 -0.010125393
-0.008053639 0.09865913 0.02646751 0.03525102 -0.04524178 -0.017244302 -0.028259369 -0.055592086
0.07606572 -0.014504746 -0.033889662 -0.04475262 0.038507704 0.011191435 0.11118756 0.058927894

model.6.weight f4 [11, 128]
00000000: 66f4 8ebd 920f aebb e760 93bd 0674 60bd
00000010: d30b 8abd 9040 69bc 9f3f 203d 388a 2fbd
00000020: 639d fcbd 9ddc 5dbc 297a 293c 9cdd e8bd
00000030: 39b4 613d 3091 bcbd b5db c03c 6aef 39bc
00000040: 3555 903d 9223 80bc f873 6bbd 008b 88bb
00000050: 1384 cc3d 6819 4a3c d788 023c a63e 50bd
00000060: 44a1 83bd 1f93 afbd 3440 c53b 0c04 c2bd
00000070: 2df9 03bd 75e9 37bd b10e 1a3d 5422 863d
00000080: bdd5 17bd ab93 34bc 5186 b23d 450c 203d
00000090: acfe f6bc 4f99 f63c b8d2 273d a196 403d
000000a0: 0c9d db3c 840f b1bc 27d3 4b3d ed59 8e3d
000000b0: 5f57 183d 6444 e03d 507b 89bd 9375 62bd
000000c0: 5bf8 99bd a898 073d 5634 bdbc 4d10 ee3c
000000d0: df29 993b a87f d0bc 00c8 5239 2838 50bd
000000e0: f2e3 77bd b04d 773c d7b9 cfbd 6b05 dd3d
000000f0: 5fbe 053d cd1c 44bd eebd 8a3d 9d50 5a3d
00000100: e4ca edbd ff9c 80bd c445 66bd 5490 a8bd
00000110: da5e 48bd 2892 f43b 43f7 30bc c1cf b63b
00000120: 0e51 dfbc 8604 333d 1b4b f43d c0a8 45bd
00000130: 7245 0e3d 3a28 373d 88eb b9bc 52ad 71bd
00000140: 56ba ac3c 9f73 b53b 5092 423d 7805 f73c
00000150: d364 623d cd16 9e3d 2053 a6bd 5e95 58bd
00000160: 3e13 2f3d 4902 6c3d 60e8 37bc d7e0 d9bc
00000170: b4e6 aa3c 4dd6 903d 3201 8dbd 0ab4 abbd
00000180: 5e4f 2a3d fea7 d3bc 376a 3a3d 7b6a ca3d
00000190: ca26 92bd 490a 90bb 6e6a 433d ba3b 313d
000001a0: aacc 4b3d bafd 96bd fc78 70bd 23fa b2bd
000001b0: c42f 253a eea8 a9bc f34a abbd 857a 9dbd
000001c0: 6855 8b3d 63e8 a5bd 27c7 b83d 2994 f63c
000001d0: 560b 6d3d 0270 03bd 3ea3 a03c 74d7 b6bc
000001e0: 84bd 6c3d 8e83 323d 12f2 e0bd f878 2fbd
000001f0: 6ade 06bd 5b8d a43d 9dd0 82bd 4ed2 adbd
00000200: 3255 133e fbdd 23be 0827 f83d e0df 02bc
00000210: f026 053b 6278 c93c 6ed4 66be 35df 12bc
00000220: 6752 0d3e 9174 c13d 75c3 c0bd 19f1 923d
00000230: f671 603d 138e 7b3d 2c9f 633c 50f9 6c3d
00000240: 35cf 9dbd 7ccb 0dbe b19b e53d f63e 6e3d
00000250: 548a eebd f75a 04bd e2b1 a7bd 535c 043e
00000260: fdd0 75bd a0d6 1c3b fe28 55be 38d6 9b3d
00000270: 8ebf 0e3d 16f9 62bd 84a2 17bd 0a55 7fbe
00000280: 29f4 023e e960 08bd e74d cebc f245 c1bd
00000290: 8328 813c 16b8 31bd 7bbd 043e c435 50bd
000002a0: 8f78 ab3d 2c6a a3bd a439 983c 4294 18bd
000002b0: 0a92 133e 3a04 88bd 31a3 1a3e 441d 8dbd
000002c0: 8756 023c 390f adbd 5270 8f3d 936a 813c
000002d0: 9a3c 43be f5dc cdbc 6944 a93d 5766 9abc
000002e0: ae9a 323d 915d 173e a574 933d 7f96 65be
000002f0: 1e23 7ebd 1606 2e3e 80a2 99bd 0595 6fbe
00000300: fa5c 363d 8820 423c 3799 223d b7db ed3d
00000310: 9f3e a5bc 56ad ee3d d8f1 9a3d a0b3 4d3d
00000320: 15a9 843d 95ad 813d 0462 19be e827 81bc
00000330: 0314 c2bd 5ba3 3ebe 705c 843d 7912 213e
00000340: 6592 963d 4cf7 fe3c adaf 973d 88e2 013d
00000350: 76e2 2bbe 6ef2 c5bc dc08 da3c 73e7 653d
00000360: 0a2e 163d 6449 91bd 5281 debc dffc 88be
00000370: a512 813d aebe 33bd 4323 3fbd 8ab0 983d
00000380: 91a2 0c3b d4d1 183d 0d75 99bc ca29 3abe
00000390: ad8b 003e 4eee a33d 0a31 543d c0b3 cb3c
000003a0: 5b78 52bd 9fdb a1bd cb64 dabd 9194 c2bc
000003b0: 377c 39be 92f8 813d 256d 0cbd f629 f83c
000003c0: e098 33be 38dd cd3d a15e eebd cb02 a9bd
000003d0: a30a 903d c4aa 9dbd fd0c a2bd 8193 9b3d
000003e0: af86 38be 209c 193b cf6b c93d 6088 133d
000003f0: 1786 933c 0abc 9dbd d204 f83d 76e5 5c3d
-0.06980209 -0.0053119147 -0.07196217 -0.05479815 -0.067405365 -0.014236584 0.039123174 -0.042856425
-0.12334707 -0.013541368 0.010344067 -0.11370394 0.055103514 -0.0920738 0.023542264 -0.011348585
0.07047502 -0.015641961 -0.057483643 -0.0041669607 0.09986129 0.012335159 0.0079671955 -0.050840996
-0.06427243 -0.08572983 0.0060196165 -0.09473428 -0.032220054 -0.044900376 0.037611667 0.06549516
-0.03706907 -0.011021535 0.08717025 0.0390742 -0.030150734 0.0301024 0.04097244 0.04701865
0.026808284 -0.021613844 0.049761917 0.06950746 0.0371927 0.109505445 -0.06712973 -0.05528791
-0.07518073 0.03310457 -0.023096245 0.029060507 0.004674181 -0.025451496 0.00020101666 -0.050834805
-0.06052012 0.015094206 -0.10142868 0.10792049 0.032652255 -0.04787903 0.067745075 0.053299535
-0.11610964 -0.06279945 -0.056218877 -0.082306534 -0.048918582 0.0074637122 -0.010801139 0.0055789654
-0.02726033 0.043705486 0.11928388 -0.048256636 0.034734197 0.044716097 -0.022695318 -0.05900318
0.021084946 0.0055374647 0.047502816 0.030153975 0.055271935 0.07719193 -0.081213236 -0.052876823
0.04274296 0.057619367 -0.011224836 -0.02659647 0.020861961 0.07072125 -0.068849936 -0.08383949
0.041579597 -0.02583694 0.04551145 0.09883591 -0.07136305 -0.0043957573 0.04770892 0.04326985
0.04975573 -0.07372613 -0.05870913 -0.08739116 0.0006301368 -0.020710435 -0.08363905 -0.07689384
0.06803399 -0.08100965 0.0902236 0.030099945 0.05787214 -0.03208924 0.01960909 -0.022319533
0.057797924 0.04358249 -0.10983671 -0.042839974 -0.032926954 0.08034774 -0.06387446 -0.08487378
0.14387968 -0.16002648 0.121168196 -0.007987946 0.0020317398 0.024593536 -0.22541973 -0.0089643495
0.13800965 0.094460614 -0.094122805 0.07174892 0.05479618 0.06141479 0.01389293 0.05785495
-0.07705537 -0.13847154 0.112113364 0.058165513 -0.11647478 -0.032313313 -0.08188225 0.12925844
-0.06001376 0.0023931637 -0.20816419 0.07609218 0.03485065 -0.055413328 -0.03702022 -0.24934784
0.12788452 -0.033295546 -0.025183631 -0.09437169 0.015766388 -0.04338845 0.12962906 -0.050832525
0.08372604 -0.07979235 0.018582173 -0.037250765 0.14411178 -0.06641431 0.15101315 -0.068903476
0.0079552 -0.08450169 0.07003845 0.015797889 -0.19066086 -0.025129775 0.08265001 -0.018847628
0.043604545 0.14781787 0.071999826 -0.22420691 -0.06204521 0.16994509 -0.075016975 -0.2339669
0.044522263 0.011848576 0.0396969 0.11614173 -0.020171462 0.11654155 0.07565659 0.050220132
0.06477562 0.06331936 -0.14978796 -0.0157661 -0.09476473 -0.18617003 0.064629436 0.15729703
0.07352141 0.03112378 0.07406554 0.031710178 -0.16785607 -0.024163451 0.026615553 0.05612893
0.036665 -0.07094076 -0.027161274 -0.26755425 0.06302384 -0.04388302 -0.046664488 0.07455547
0.0021459202 0.037309483 -0.018732572 -0.18180004 0.12553282 0.080044374 0.05180458 0.024865985
-0.05138431 -0.079032175 -0.10663756 -0.023752483 -0.1811379 0.06346239 -0.034283776 0.030293446
-0.17538786 0.1005196 -0.11639143 -0.08252486 0.07033279 -0.076985866 -0.079126336 0.075964935
-0.18020128 0.0023439005 0.09835016 0.03601873 0.018008275 -0.07701881 0.121102944 0.05392977

model.6.bias f4 [11]
00000000: a7c7 6c3d 4851 413d e167 c3bc 2eb8 483d
00000010: 8058 00bd 9dd6 c3bd 36b3 60bb 1755 3f3d
00000020: 4d66 973c 7828 803d f9de d53d
0.05780759 0.047196656 -0.023853244 0.049003772 -0.0313344 -0.095624186 -0.0034286506 0.046712007
0.018481398 0.06257719 0.10442919
