Modulation Classification/best_model_ANN.pth (torch, 404783 bytes, 8 tensors)

model.0.weight f4 [128, 256]
0.050920457 -0.022637442 -0.024470814 -0.037448093 0.059071235 0.05192837 0.0571938 -0.009165175
-0.03369344 0.0066171214 -0.042533576 -0.046219423 -0.06173914 0.049090073 0.046850227 0.03408753
-0.030200988 -0.01553499 0.024911731 0.014392599 -0.008297473 0.01273033 -0.015589528 0.057639316
0.05346006 0.019540623 0.03389413 -0.050960623 -0.04642412 -0.05884345 0.057599127 0.0102833435
-0.00637158 -0.051183477 0.02823706 -0.010096051 0.0018943921 -0.042936288 0.0108313635 -0.032185316
-0.05622954 0.042725094 0.021597318 -0.0074682534 -0.048776917 -0.028775878 0.0001398325 0.00054357946
-0.05825723 -0.02264671 -0.035208292 -0.060657807 0.026786976 -0.019906782 -0.06196607 0.019187182
-0.03253282 -0.041424632 0.026144013 0.0036260858 0.0070044994 0.028341353 -0.054303795 0.012103394
0.013390645 -0.04877121 -0.005679883 -0.05214051 0.04282383 0.020230472 -0.023842841 0.004907474
-0.012940854 0.061759725 0.020163476 0.026123375 0.053644434 -0.045901194 0.040292352 0.03581682
0.061570637 -0.062344924 -0.043973766 0.010728553 0.05411446 -0.0058708712 0.053954862 -0.035993405
0.0044640154 0.035243735 -0.059493333 -0.058994867 -0.030855723 0.010618798 0.058401585 -0.047243953
-0.061357208 0.04970161 -0.058134377 -0.05032696 0.051117703 0.054874733 -0.026620992 -0.025969967
-0.00014387816 -0.023943491 -0.03653726 0.06166152 0.059998922 -0.020999894 0.030097343 0.048949458
-0.03802436 -0.022440314 -0.027370669 -0.0354845 -0.025479943 -0.04545611 -0.03148081 -0.033782624
-0.05787207 0.019861989 -0.025021754 0.028750524 -0.029493034 -0.011043139 -0.061469883 0.021992706
8.47131e-06 0.04466316 0.047087245 0.008510098 -0.047739662 0.031418405 -0.05904647 -0.019852303
-0.043145306 0.05078905 -0.011242621 0.02796118 0.024873406 0.010006756 0.036574893 0.012412451
0.042291865 -0.043777473 -0.02779086 0.020118706 -0.039868653 -0.010924712 -0.041716255 -0.029248431
-0.04627908 0.0022553355 -0.03319946 -0.03145448 0.046892412 -0.0057292804 -0.057803392 0.060311288
-0.061795145 -0.026293054 -0.062407456 0.0014479533 0.0015761778 -0.032226592 -0.020557843 -0.0611156
-0.030554257 -0.055365317 -0.022932947 -0.016263045 -0.05137939 0.011227034 -0.00018589199 -0.059609152
0.035143934 0.056516267 0.002898723 0.037645034 -0.016950764 -0.047504015 -0.021980606 -0.0020715967
0.060810633 -0.047954977 0.02688381 0.039652847 -0.004156254 -0.027031586 0.047462225 0.013521217
-0.060858265 0.044618785 0.061700538 -0.059198342 -0.040741414 -0.043778837 0.04335034 0.025324017
-0.06118547 -0.017844237 -0.03456109 0.035898484 0.055077344 0.015441038 -0.0045150593 -0.00397864
0.037717827 0.04206489 -0.019735761 0.05904141 0.06077148 0.033887736 -0.03259807 0.014603786
0.035336174 0.044870444 -0.008433767 -0.057214767 0.016439766 0.021791726 -0.017332308 -0.023069628
-0.02848997 -0.04719411 0.025884531 -0.0031091347 -0.0007271394 -0.015512727 0.05237121 -0.01730857
0.017480709 -0.047990732 -0.0423688 -0.051972933 0.049064845 -0.0034418628 -0.0091878995 -0.0026696324
0.029493377 0.029589474 -0.052442506 -0.040331945 0.05625674 0.026317962 0.003904745 0.046513
-0.004691966 -0.002332814 0.021084175 0.02457536 0.029372424 -0.026347123 -0.02580376 0.048976563
00000000: f891 503d 2872 b9bc 0477 c8bc 2c63 19bd
00000010: aef4 713d d8b2 543d 0c44 6a3d 8829 16bc
00000020: 2202 0abd 70d4 d83b b037 2ebd 9450 3dbd
00000030: 2ee2 7cbd ac12 493d 06e6 3f3d 5e9f 0b3d
00000040: 1068 f7bc 7886 7ebc b013 cc3c f0ce 6b3c
00000050: 20f2 07bc e092 503c 386b 7fbc 3417 6c3d
00000060: f0f8 5a3d a813 a03c 92d4 0a3d 16bc 50bd
00000070: 3827 3ebd d405 71bd 10ed 6b3d 787b 283c
00000080: b0c8 d0bb c4a5 51bd 6851 e73c e869 25bc
00000090: 404d f83a f6dd 2fbd 0876 313c c0d4 03bd
000000a0: f250 66bd 8200 2f3d dcec b03c 40b8 f4bb
000000b0: 4eca 47bd 64bb ebbc 00a0 1239 007f 0e3a
000000c0: 229f 6ebd 9885 b9bc 9236 10bd 5274 78bd
000000d0: 5c70 db3c 8c13 a3bc 22d0 7dbd 702e 9d3c
000000e0: 2241 05bd e0ac 29bd f82b d63c a0a3 6d3b
000000f0: 0086 e53b 202c e83c a86d 5ebd 504d 463c
00000100: 7064 5b3c 52c4 47bd 501e babb 4a91 55bd
00000110: 0a68 2f3d 60ba a53c 1052 c3bc e0ce a03b
00000120: e005 54bc c4f7 7c3d e02d a53c b000 d63c
00000130: 44ba 5b3d e402 3cbd 9809 253d a8b4 123d
00000140: 7e31 7c3d 645d 7fbd d61d 34bd d0c6 2f3c
00000150: 20a7 5d3d 7060 c0bb c6ff 5c3d d26d 13bd
00000160: e046 923b bc5b 103d 48af 73bd 9aa4 71bd
00000170: 24c5 fcbc 78fa 2d3c 8036 6f3d e082 41bd
00000180: b251 7bbd ea93 4b3d 501e 6ebd a423 4ebd
00000190: cc60 513d 54c4 603d 4414 dabc f8be d4bc
000001a0: 00de 16b9 2425 c4bc 18a8 15bd ca90 7c3d
000001b0: 6ec1 753d f807 acbc b48e f63c 3a7f 483d
000001c0: 6ebf 1bbd c0d4 b7bc 7438 e0bc 3258 11bd
000001d0: 50bb d0bc 3030 3abd 06f2 00bd a65f 0abd
000001e0: 440b 6dbd 9cb5 a23c 6cfa ccbc 3886 eb3c
000001f0: 609b f1bc 48ee 34bc d8c7 7bbd 0c2a b43c
00000200: 0020 0e37 b8f0 363d 8ede 403d f06d 0b3c
00000210: aa8a 43bd 96b0 003d b6da 71bd 4ca1 a2bc
00000220: 22b9 30bd 2e08 503d f832 38bc d80e e53c
00000230: 50c3 cb3c 60f3 233c 8ecf 153d 985d 4b3c
00000240: 3c3a 2d3d 0250 33bd a8a9 e3bc fccf a43c
00000250: 504d 23bd 90fd 32bc aade 2abd 689a efbc
00000260: 228f 3dbd 40ce 133b 28fc 07bd 6ad6 00bd
00000270: 4212 403d b0bc bbbb 40c3 6cbd f808 773d
00000280: e81c 7dbd 8864 d7bc f69e 7fbd 40c9 bd3a
00000290: c097 ce3a 0800 04bd ec68 a8bc 5a54 7abd
000002a0: ec4c fabc bec6 62bd e0dd bbbc 143a 85bc
000002b0: 3273 52bd 98f1 373c 00ec 42b9 ba28 74bd
000002c0: 16f3 0f3d 9a7d 673d 80f8 3d3b ae31 1a3d
000002d0: 54dc 8abc 9293 42bd ac10 b4bc a0c3 07bb
000002e0: 9214 793d 706c 44bd 703b dc3c 066b 223d
000002f0: 3031 88bb 5871 ddbc c067 423d 1888 5d3c
00000300: 8446 79bd 30c2 363d b4b9 7c3d f679 72bd
00000310: 78e0 26bd 7051 33bd 2090 313d 5074 cf3c
00000320: 9e9d 7abd 142e 92bc ee8f 0dbd 4a0a 133d
00000330: c898 613d 68fc 7c3c 10f3 93bb 405f 82bb
00000340: 027e 1a3d 3c4c 2c3d e4ac a1bc 68d5 713d
00000350: 84eb 783d decd 0a3d 8e85 05bd b844 6f3c
00000360: aabc 103d 12ca 373d c82d 0abc 085a 6abd
00000370: b0ac 863c 9084 b23c 7cfc 8dbc 84fc bcbc
00000380: cc63 e9bc 9c4e 41bd cc0b d43c a0c2 4bbb
00000390: 809d 3eba 1829 7ebc 3283 563d b4ca 8dbc
000003a0: b433 8f3c ee91 44bd e88a 2dbd 92e1 54bd
000003b0: 38f8 483d e090 61bb d888 16bc 00f5 2ebb
000003c0: 189c f13c a065 f23c f4cd 56bd 1c33 25bd
000003d0: 786d 663d c498 d73c c0e6 7f3b 6a84 3e3d
000003e0: 10bf 99bb 20e2 18bb b8b8 ac3c 4452 c93c
000003f0: 709e f03c ecd5 d7bc 6862 d3bc a69b 483d

model.0.bias f4 [128]
-0.026113495 0.05735105 0.07836803 0.107942194 -0.034628578 -0.0471685 0.09305756 -0.048459917
0.07010518 0.077004164 0.07815266 0.053982973 0.07580928 -0.039233103 0.07256004 0.093435414
0.07618928 -0.02394998 0.10025225 0.081707515 0.06241719 0.071604736 -0.035944693 -0.040988326
0.06124513 -0.04292661 -0.026915416 -0.051738113 0.111337066 -0.041248597 0.084564224 -0.026592845
0.042824984 0.07706322 0.09058235 -0.029206164 0.075673595 0.057165448 -0.01661256 0.07714524
-0.05033475 0.08193885 0.104629 -0.002118645 0.057055283 0.09591647 -0.02682896 0.07122527
0.0677936 -0.019901222 -0.015112726 -0.024159767 0.063762665 -0.06189067 0.107616276 -0.023221195
0.05386227 0.068742104 -0.02870147 0.058046594 0.09221701 0.08821853 -0.03025616 -0.02890616
0.07990539 0.037150558 -0.030273855 -0.03976021 -0.02107776 -0.03281659 0.09840452 -0.0038634646
-0.019326344 -0.028426446 0.07095027 0.08707626 -0.017685793 -0.036481 -0.03874813 0.06297709
-0.05493848 0.06537233 0.106542766 -0.04283596 -0.0061812103 0.075605914 0.1219358 0.08207187
0.11752313 0.07497919 -0.026491635 0.07993955 0.06774045 -0.027704291 0.04277953 0.104779616
0.068907 -0.04518068 -0.027516343 0.09054533 -0.05755824 0.031437136 0.07441761 0.07681402
-0.02040373 0.10017735 -0.018264428 -0.0022480201 -0.024623983 -0.014792308 0.079995126 0.034341827
0.09136602 -0.04324919 0.053264976 0.015063586 -0.038816065 0.0771301 0.061782014 0.073182546
0.10355486 0.080803156 0.090352766 -0.0041836305 -0.022886623 0.0714312 -0.016952902 0.083210126
00000000: f8eb d5bc efe8 6a3d 6b7f a03d cc10 dd3d
00000010: b2d6 0dbd c233 41bd f694 be3d e87d 46bd
00000020: 4e93 8f3d 5cb4 9d3d 800e a03d 401d 5d3d
00000030: e541 9b3d e4b2 20bd 5c9a 943d 115b bf3d
00000040: 2009 9c3d c032 c4bc 0d51 cd3d 4556 a73d
00000050: 2ba9 7f3d 81a5 923d be3a 13bd 60e3 27bd
00000060: 2cdc 7a3d d0d3 2fbd b87d dcbc 58eb 53bd
00000070: b004 e43d 4af4 28bd 0230 ad3d 3dd9 d9bc
00000080: 4069 2f3d 52d3 9d3d 3d83 b93d c441 efbc
00000090: c2fa 9a3d 5126 6a3d 1017 88bc 53fe 9d3d
000000a0: d02b 4ebd 8ecf a73d bb47 d63d f7d8 0abb
000000b0: cdb2 693d db6f c43d 68c8 dbbc 8ede 913d
000000c0: 5fd7 8a3d e307 a3bc 5e9b 77bc b4ea c5bc
000000d0: 0096 823d 1281 7dbd ec65 dc3d 603a bebc
000000e0: af9e 5c3d a9c8 8c3d 581f ebbc 44c2 6d3d
000000f0: 46dc bc3d ebab b43d c4db f7bc 9ccc ecbc
00000100: 70a5 a33d 2f2b 183d e000 f8bc 9adb 22bd
00000110: 44ab acbc b06a 06bd 4f88 c93d 2e32 7dbb
00000120: 4852 9ebc 94de e8bc 604e 913d 0a55 b23d
00000130: cce1 90bc 1a6d 15bd 5cb6 1ebd 22fa 803d
00000140: 2c07 61bd eee1 853d 1833 da3d c274 2fbd
00000150: c08b cabb 46d7 9a3d 7ab9 f93d 4c15 a83d
00000160: f7af f03d b18e 993d fc04 d9bc 59b7 a33d
00000170: 81bb 8a3d 1cf4 e2bc 9739 2f3d b296 d63d
00000180: 1d1f 8d3d 600f 39bd f469 e1bc d46f b93d
00000190: 30c2 6bbd 3ac4 003d 4368 983d ab50 9d3d
000001a0: b925 a7bc c829 cd3d 489f 95bc 8553 13bb
000001b0: 3cb8 c9bc 705b 72bc 7cd4 a33d 04aa 0c3d
000001c0: 1c1e bb3d 1026 31bd 602c 5a3d 42cd 763c
000001d0: 98fd 1ebd 63f6 9d3d 230f 7d3d bbe0 953d
000001e0: 9214 d43d 207c a53d df0a b93d d616 89bb
000001f0: ba7c bbbc 854a 923d d0e0 8abc 126a aa3d

model.2.weight f4 [256, 128]
0.058122493 0.022449687 0.047078576 0.08037245 -0.054193176 0.0494015 0.10416456 -0.052617222
-0.005578348 0.02924402 -0.058439653 -0.033580225 0.005678983 0.027976803 0.049922533 0.10091845
0.04439564 0.016998455 0.09252226 0.058532752 -0.006039809 -0.06769953 0.0744428 0.008054629
0.030802574 0.016243868 -0.01347287 -0.022105768 0.17528546 0.0091139 0.10872168 -0.020542972
0.034083597 -0.02591203 0.07654735 -0.00986962 0.07478332 -0.031131275 0.0134187415 0.008026256
-0.01763457 -0.003851462 0.10373358 -0.28424206 0.1467634 -0.11090992 -0.050657235 0.11280695
0.098633334 0.02342324 0.049940426 -0.037492614 -0.07058281 0.046350263 0.14128752 -0.046949312
-0.12521324 0.04689896 0.028711341 0.014531783 0.04637248 0.10543663 -0.08509869 0.017834142
-0.04263267 -0.019583344 -0.009509318 -0.008160137 -0.036190614 -0.08829893 -0.09232514 -0.6145595
0.08403548 0.017885707 -0.017212592 0.08284976 -0.072451994 -0.026877739 0.0058089495 0.084240384
-0.06710102 -0.007830506 0.17139576 0.08246649 -0.62576413 0.17602143 0.108407766 0.0062206443
0.23446447 0.08959964 -0.0076560825 0.026831828 -0.040570367 0.0007835105 -0.024939962 0.16138195
0.22758678 -0.008148409 0.07185378 0.14154975 0.02394709 -0.0824973 0.010535457 0.04641015
-0.040080998 0.034477677 -0.008055425 -1.2105346 -0.018580735 -0.012897223 0.16247615 0.07120314
0.04549134 0.0029846206 0.023963684 -0.12005055 -0.07091287 0.054196995 -0.01239731 -0.07837891
0.05723426 -0.062088296 0.17778878 -1.0927166 0.0052836584 -0.006856958 -0.057886768 0.1691723
-0.07998536 0.07414144 -0.0018451527 0.05422978 0.010959953 0.08088785 0.077498995 0.07116193
-0.016038723 0.16872951 0.0419579 0.06966105 -0.037026487 0.04648363 0.04368867 0.07715368
0.17611153 -0.071345225 0.14016286 0.04531963 0.08295586 -0.070199616 -0.01951325 0.087527834
0.13954268 -0.06384846 -0.025823236 0.025615208 0.22925825 -0.036117613 -0.038234957 0.03787633
0.057207018 0.021553105 0.110617846 0.03140021 -0.04535129 -0.06377792 0.024033852 0.007759943
-0.0066927075 0.056480315 0.19856012 -0.26562777 0.1039368 -0.02913762 0.014048837 -0.013445432
0.05259518 0.005153817 0.066661075 0.062869824 -0.004651844 0.056275822 0.11939798 -0.04395366
-0.06403221 0.17136331 0.0004730448 0.07438503 0.06846669 0.024184989 -0.048314113 -0.06161364
-0.030034013 0.006747866 0.06293505 0.0030530244 0.029715508 -0.019329607 0.017200455 -0.6071442
0.0018046126 0.057561927 -0.00853849 0.08865536 0.039346255 0.04945547 -0.031919938 0.11651352
-0.042447124 0.031239035 0.11434194 -0.017065734 -0.70214593 0.16419563 0.13533196 0.122681744
0.06657031 0.10970893 0.006158732 0.033234157 -0.065359086 -0.03127996 -0.1258476 0.19966182
0.23413038 -0.025794387 -0.07192671 0.12761463 0.06740511 0.034151755 -0.058662545 0.10829397
0.050420575 0.041007213 -0.08630526 -1.2196345 0.04065568 0.0728123 0.1467091 -0.05707722
0.123091936 0.034307167 -0.027855013 -0.16436456 -0.07748018 0.060431052 0.08943062 -0.06893519
0.13004379 -0.011848052 0.1291406 -0.94633573 0.008803743 -0.08454223 0.08561512 0.07600494
00000000: da11 6e3d 68e8 b73c 77d5 403d 509a a43d
00000010: aaf9 5dbd 3a59 4a3d 3b54 d53d 2885 57bd
00000020: 93ca b6bb 2891 ef3c 6b5e 6fbd 6b8b 09bd
00000030: c316 ba3b 9c2f e53c 927b 4c3d 55ae ce3d
00000040: 34d8 353d 5840 8b3c 507c bd3d 0ac0 6f3d
00000050: 97e9 c5bb 0da6 8abd 7775 983d 90f7 033c
00000060: ae55 fc3c dc11 853c 50bd 5cbc 2817 b5bc
00000070: 087e 333e 7852 153c 79a9 de3d bc49 a8bc
00000080: 3e9b 0b3d 7745 d4bc dbc4 9c3d 30b4 21bc
00000090: ff27 993d 0407 ffbc 48da 5b3c 8f80 033c
000000a0: 6076 90bc cf68 7cbb 4572 d43d 2d88 91be
000000b0: 2549 163e bd24 e3bd f67d 4fbd 5507 e73d
000000c0: 4600 ca3d 18e2 bf3c 558e 4c3d db91 19bd
000000d0: b88d 90bd c6d9 3d3d adad 103e ec4d 40bd
000000e0: e637 00be 2019 403d 0c34 eb3c b716 6e3c
000000f0: 12f1 3d3d 29ef d73d 3948 aebd e818 923c
00000100: 989f 2ebd 406d a0bc f8cc 1bbc 18b2 05bc
00000110: 9c3c 14bd 12d6 b4bd f714 bdbd c553 1dbf
00000120: cb1a ac3d 0c85 923c 6c01 8dbc 23ad a93d
00000130: b661 94bd b42e dcbc 0059 be3b 3986 ac3d
00000140: 426c 89bd 864b 00bc 5f82 2f3e 31e4 a83d
00000150: 1432 20bf f63e 343e e404 de3d 8cd6 cb3b
00000160: 7417 703e 0480 b73d e0df fabb 6cce db3c
00000170: 1d2d 26bd 8064 4d3a e44e ccbc 4f41 253e
00000180: 820c 693e e880 05bc 1328 933d 6bf2 103e
00000190: b02c c43c 58f4 a8bd e99c 2c3c 9218 3e3d
000001a0: f92b 24bd 7738 0d3d e7fa 03bc ccf2 9abf
000001b0: a036 98bc e04e 53bc 2660 263e f4d2 913d
000001c0: 2155 3a3d a099 433b 7d4f c43c 10dd f5bd
000001d0: c43a 91bd abfd 5d3d 161e 4bbc 1f85 a0bd
000001e0: 796e 6a3d 4c50 7ebd 430e 363e 23de 8bbf
000001f0: 8a22 ad3b 55b0 e0bb ad1a 6dbd 813b 2d3e
00000200: 5dcf a3bd 78d7 973d 0dd9 f1ba 0c20 5e3d
00000210: 6091 333c 87a8 a53d cbb7 9e3d 59bd 913d
00000220: a463 83bc 6ec7 2c3e 0cdc 2b3d 74aa 8e3d
00000230: 16a9 17bd 9e65 3e3d e4f2 323d c002 9e3d
00000240: 9556 343e 721d 92bd da86 0f3e 14a1 393d
00000250: c3e4 a93d d1c4 8fbd 40da 9fbc cb41 b33d
00000260: 47e4 0e3e fbc2 82bd 408b d3bc fcd6 d13c
00000270: adc2 6a3e 10f0 13bd 429c 1cbd 3624 1b3d
00000280: e851 6a3d 2390 b03c 9c8b e23d 829d 003d
00000290: 46c2 39bd 009e 82bd a4e2 c43c 1f47 fe3b
000002a0: 804e dbbb e757 673d 5853 4b3e 5d00 88be
000002b0: d1dc d43d 05b2 eebc 182d 663c 3b4a 5cbc
000002c0: 0b6e 573d 5ae1 a83b 9a85 883d e5c1 803d
000002d0: 7f6e 98bb 7a81 663d ee86 f43d c108 34bd
000002e0: 5223 83bd dd79 2f3e 0003 f839 2e57 983d
000002f0: 4438 8c3d 991f c63c 05e5 45bd 965e 7cbd
00000300: e409 f6bc 341d dd3b 17e4 803d 4015 483b
00000310: f06d f33c 2059 9ebc f8e7 8c3c cd6d 1bbf
00000320: c088 ec3a 0ec6 6b3d 06e5 0bbc f190 b53d
00000330: 8a29 213d d291 4a3d 7bbe 02bd a49e ee3d
00000340: 09dd 2dbd 01e9 ff3c 1b2c ea3d 70cd 8bbc
00000350: d6bf 33bf e622 283e 7694 0a3e 9140 fb3d
00000360: 0456 883d 13af e03d 30cf c93b 8a20 083d
00000370: fcda 85bd 6a1f 00bd 31de 00be 2674 4c3e
00000380: e0bf 6f3e c04e d3bc 504e 93bd 69ad 023e
00000390: b10b 8a3d b6e2 0b3d 2348 70bd 3bc9 dd3d
000003a0: ce85 4e3d 2ef7 273d d0c0 b0bd fc1c 9cbf
000003b0: 9286 263d 9d1e 953d e93a 163e cec9 69bd
000003c0: a017 fc3d ac85 0c3d 3230 e4bc 2f4f 28be
000003d0: eead 9ebd 8d86 773d 6727 b73d e52d 8dbd
000003e0: 332a 053e 551e 42bc 6f3d 043e 0f43 72bf
000003f0: 933d 103c 7a24 adbd fb56 af3d 7aa8 9b3d

model.2.bias f4 [256]
0.1526112 0.11142587 -0.13255711 0.04424681 0.0410771 -0.06652276 -0.048875213 -0.04227707
-0.07265404 0.16213953 0.074108675 0.097621776 -0.074768 0.13835305 -0.07046376 -0.08180515
-0.040039644 0.08162738 -0.057831544 0.16006368 -0.023395007 -0.06283125 0.11404971 0.11318448
-0.02684281 -0.07480185 0.04182326 -0.02220268 0.013033621 0.071005955 0.15445809 0.035729423
-0.007647797 -0.038406484 -0.033652224 0.12575106 0.10547875 -0.02735761 0.115622304 -0.0005241441
-0.031782493 0.099822715 -0.06981993 0.11077675 0.12474414 -0.069408484 -0.05210011 0.10499709
0.11808275 0.010894034 -0.02760669 -0.050300125 -0.085276164 0.13826165 0.12030434 -0.056534816
-0.029809937 -0.007413976 -0.07690762 0.08260249 0.08479677 0.04862241 0.06966594 -0.05503779
-0.021799996 0.0872709 -0.06056732 0.0066754073 -0.035230495 -0.0772678 -0.029574383 0.1414254
-0.052686185 0.15110947 0.08986732 -0.057948902 0.13111728 -0.12624812 0.073212616 0.079852834
0.108133644 -0.083649546 0.1637783 0.13452871 0.0070060384 0.13917206 0.0784903 -0.03110673
0.10766168 -0.022690678 0.13894206 -0.06127516 0.100594476 0.094352745 -0.065780714 0.081396855
-0.06981127 -0.06080037 -0.045408156 0.07192955 0.08233409 -0.039002713 -0.072284825 -0.03938506
-0.08096214 -0.025214437 0.08864359 -0.07445025 0.16944231 0.085845 -0.061815217 0.12189254
0.072832145 -0.06692823 0.14240965 -0.08779963 -0.043682706 0.14103903 0.08695363 0.07000779
-0.06722629 0.16971576 -0.060120393 -0.08742357 -0.046993893 0.13303685 0.071650736 -0.036704537
0.21464798 -0.022696465 -0.03740629 0.0031049915 -0.06903444 -0.0866835 0.14473426 -0.048430786
-0.010647371 0.09375745 -0.056381032 -0.027911887 -0.04125503 0.15268211 -0.023638368 0.13855682
-0.078625575 -0.049889445 -0.07356534 0.13112865 -0.06792294 0.1216159 0.09255025 0.13000107
-0.032842744 -0.006493747 0.010301167 -0.0544195 -0.019436877 0.1648993 0.12795009 0.11818537
-0.04857199 -0.07288164 0.13690062 0.075858615 0.12176662 -0.015421353 -0.013136738 0.14165804
0.1313074 0.06984727 0.11777731 -0.07044764 0.12336805 -0.08028368 -0.04044816 -0.067895465
-0.06428274 0.13128665 0.037589528 0.09926258 0.12932207 -0.065672554 0.118726246 0.04582896
0.08446542 -0.06807156 0.06623473 0.093156256 -0.0678126 0.098041914 -0.048715405 0.1026224
0.16518226 0.029536672 -0.07394788 0.19191964 0.07973005 0.12322142 -0.011515595 -0.04244662
0.08177897 -0.0028010681 0.1208114 0.1673298 0.11481132 0.15391341 -0.07283505 0.059062436
-0.09323514 0.032764215 0.04981444 -0.07219101 0.09198243 0.061268013 0.13361226 -0.037995122
0.114855275 0.09706553 0.12536424 -0.03079269 -0.019295786 0.0644737 0.10338005 -0.049291704
0.11512692 0.11051221 -0.023265252 0.090052485 -0.06841603 -0.0021305054 -0.005583617 0.0944402
-0.06104497 0.13671508 -0.046497446 0.112514175 0.12875775 0.1296398 0.13613607 -0.028980888
0.12263333 -0.08167246 0.014917192 0.14030825 -0.05497323 -0.060679805 -0.062034093 0.14337805
0.14688474 0.040020328 0.0768594 -0.018643072 0.13584027 0.12132538 0.0976112 0.0035648136
00000000: 1c46 1c3e 3f33 e43d 0dbd 07be 253c 353d
00000010: 7640 283d 163d 88bd 6031 48bd b92a 2dbd
00000020: a4cb 94bd e807 263e 4ac6 973d eded c73d
00000030: f71f 99bd 6cac 0d3e 4e4f 90bd 7589 a7bd
00000040: 9c00 24bd 412c a73d c5e0 6cbd bce7 233e
00000050: e3a6 bfbc acad 80bd e592 e93d 44cd e73d
00000060: 74e5 dbbc b631 99bd de4e 2b3d 65e2 b5bc
00000070: f88a 553c 926b 913d 432a 1e3e 0459 123d
00000080: 5f9a fabb 1e50 1dbd ead6 09bd e3c4 003e
00000090: 3e05 d83d 111d e0bc 63cb ec3d b766 09ba
000000a0: 5c2e 02bd da6f cc3d c0fd 8ebd ecde e23d
000000b0: db79 ff3d 0926 8ebd ed66 55bd b708 d73d
000000c0: 5ed5 f13d e47c 323c 6d27 e2bc 8107 4ebd
000000d0: 45a5 aebd 7694 0d3e 1f62 f63d 0d91 67bd
000000e0: f833 f4bc f0f0 f2bb be81 9dbd 7f2b a93d
000000f0: eea9 ad3d 4b28 473d 04ad 8e3d 4e6f 61bd
00000100: e895 b2bc 16bb b23d 7015 78bd 60bd da3b
00000110: da4d 10bd 953e 9ebd fa45 f2bc d2d1 103e
00000120: 78cd 57bd 71bc 1a3e 5c0c b83d d45b 6dbd
00000130: 9c43 063e 3047 01be 7ff0 953d e289 a33d
00000140: 2c75 dd3d 7450 abbd 80b5 273e e5c1 093e
00000150: e992 e53b 1f83 0e3e 86bf a03d 8bd3 febc
00000160: ba7d dc3d cde1 b9bc d446 0e3e aafb 7abd
00000170: 7a04 ce3d 033c c13d 0ab8 86bd 65b3 a63d
00000180: 36f9 8ebd cf09 79bd e7fd 39bd cd4f 933d
00000190: c69e a83d 4fc1 1fbd 110a 94bd 3b52 21bd
000001a0: 7acf a5bd 828e cebc c58a b53d 5f79 98bd
000001b0: 4982 2d3e 81cf af3d f431 7dbd cca2 f93d
000001c0: 0529 953d ab11 89bd d6d3 113e 4bd0 b3bd
000001d0: a3ec 32bd 896c 103e bf14 b23d 3f60 8f3d
000001e0: f0ad 89bd f8c9 2d3e cd40 76bd 210b b3bd
000001f0: ab7c 40bd d03a 083e 9fbd 923d 7f57 16bd
00000200: aecc 5b3e f0ed b9bc 5737 19bd 1d7d 4b3b
00000210: ee61 8dbd 1e87 b1bd 3835 143e 5c5f 46bd
00000220: 5072 2ebc e803 c03d ccef 66bd 78a7 e4bc
00000230: 09fb 28bd b358 1c3e 40a5 c1bc d7e1 0d3e
00000240: 7206 a1bd e058 4cbd 6da9 96bd 9746 063e
00000250: 2f1b 8bbd c211 f93d fc8a bd3d 001f 053e
00000260: 1d86 06bd 7fc9 d4bb 3ac6 283c fbe6 5ebd
00000270: 163a 9fbc 5ddb 283e 5905 033e 2c0b f23d
00000280: 6cf3 46bd f842 95bd ad2f 0c3e c35b 9b3d
00000290: c760 f93d d8a9 7cbc 793b 57bc ce0e 113e
000002a0: 7275 063e 160c 8f3d 3b35 f13d da46 90bd
000002b0: 63a8 fc3d c56b a4bd f8ac 25bd c70c 8bbd
000002c0: aba6 83bd 0270 063e 7af7 193d 2e4a cb3d
000002d0: 016d 043e 557f 86bd bf26 f33d 26b7 3b3d
000002e0: 35fc ac3d 1a69 8bbd 13a6 873d b5c8 be3d
000002f0: 55e1 8abd 33ca c83d ce89 47bd b12b d23d
00000300: 8a25 293e e4f6 f13c fc71 97bd 9586 443e
00000310: 8249 a33d 835b fc3d e8ab 3cbc 82dc 2dbd
00000320: bc7b a73d 2092 37bb f86b f73d 8158 2b3e
00000330: 3322 eb3d 7a9b 1d3e 8b2a 95bd 74eb 713d
00000340: 11f2 bebd c533 063d 3a0a 4c3d e1d8 93bd
00000350: 4961 bc3d 2bf4 7a3d a7d1 083e c6a0 1bbd
00000360: 3e39 eb3d 4bca c63d 7c5f 003e f440 fcbc
00000370: 3212 9ebc ca0a 843d ebb8 d33d 19e6 49bd
00000380: aac7 eb3d 3a54 e23d c596 bebc 706d b83d
00000390: b41d 8cbd f39f 0bbb c6f6 b6bb dd69 c13d
000003a0: 4a0a 7abd 0aff 0b3e 1b74 3ebd d56d e63d
000003b0: 12d9 033e 4cc0 043e 4167 0b3e 5469 edbc
000003c0: 2f27 fb3d e443 a7bd 3d67 743c f7ac 0f3e
000003d0: 9c2b 61bd 638b 78bd 7617 7ebd b2d1 123e
000003e0: f468 163e 5bec 233d 7668 9d3d 5bb9 98bc
000003f0: b619 0b3e 7179 f83d 61e8 c73d a69f 693b

model.4.weight f4 [128, 256]
-0.07008285 -0.01169531 -0.014412187 -0.06311554 0.05576945 0.05477149 0.03195723 0.033460252
0.034219332 -0.03720047 -0.020900175 -0.007761705 -0.0039872304 0.040228877 -0.016376011 0.06095963
0.061635524 0.049405992 0.019393384 0.03808356 0.024571285 -0.009649672 0.005925838 0.024525682
0.05059883 0.037205867 -0.015601288 0.032998994 0.03314975 -0.02445887 -0.01347667 0.04897159
-0.024866529 -0.06018389 0.02800341 0.042609833 -0.013395434 0.054424085 0.032567635 -0.06262436
-0.044500016 -0.026684571 -0.052240796 0.010714139 -0.017335085 -0.0048694015 -0.0019862726 0.017166326
0.050160196 0.015019201 -0.012888573 0.01323428 -0.05036913 0.047240198 -0.05725131 -0.05932819
0.03692361 0.029806897 0.033853903 -0.00587685 0.05037821 -0.065369114 0.0060942 -0.0015047565
-0.0036779568 -0.03844774 0.0148083195 -0.044002444 -0.006786026 0.029129773 -0.031166665 -0.0011480302
-0.052822642 0.013779185 -0.049051546 0.031438164 0.002953196 0.001542829 -0.0019519413 0.0394989
-0.034164842 -0.052203596 -0.002471745 0.0034789448 0.026216373 -0.0020856531 -0.04178959 0.032696463
0.024424076 -0.011011921 -0.052656658 -0.021088809 -0.032144517 -0.0018667391 0.007951669 -0.06380966
0.021867089 0.015129633 0.032472692 0.016498204 -0.05303669 -0.03787946 0.020604014 -0.04209151
-0.003530033 0.044528745 -0.044918492 0.028948396 -0.014362916 0.053861283 -0.0042345896 0.00502967
-0.007867713 0.037523992 0.039297625 0.04158345 -0.042924277 -0.00629697 -0.03844991 0.019734306
0.008422069 -0.0058695623 0.057544082 -0.010700494 -0.032948643 -0.029658554 -0.03374026 -0.020292103
-0.033908486 0.028508298 -0.03256385 0.05250527 0.029066935 0.032220945 -0.033009533 -0.039843135
0.013861269 -0.057597343 0.04575663 0.01129394 0.011334278 -0.033979006 -0.007999845 -0.008362053
0.027047768 0.0082605705 -0.032311693 -0.04953792 0.013530053 0.055077896 -0.043903016 -0.04677227
-0.010871336 -0.026816256 0.028740905 -0.0061265677 0.020874098 -0.008817315 -0.029010065 8.3922554e-05
-0.049481273 -0.044022724 -0.019031918 -0.010735851 0.060405366 0.033169486 -0.02571135 0.027947256
-0.016254544 -0.04299756 0.031387553 -0.04464569 0.0234019 -0.03499326 -0.0067400113 0.001193665
0.009106167 -0.009617971 0.010093151 -0.017328706 0.04198128 0.031515352 -0.03895773 0.027517894
-0.0049067484 0.0021018982 -0.02964248 -0.0628109 -0.019435816 0.016669657 0.059536718 0.062682
-0.05251389 0.035886675 0.009698421 -0.06829811 0.032018665 -0.053239048 -0.040904216 0.020436928
-0.039235532 0.05441892 0.042457383 -0.035113357 -0.02714122 0.024552174 -0.022819132 -0.0031015233
-0.02696482 0.031388972 -0.013754357 0.0188893 0.020152945 -0.03199824 -0.036703024 0.036943212
-0.035549812 -0.047295444 -0.049921535 -0.0457204 -0.039528333 0.002887635 0.002408011 0.0072021037
-0.023369819 0.053486932 0.0054698735 -0.066552415 -0.051005997 0.004825853 -0.01667995 -0.05048784
0.020609848 0.014172345 -0.025187187 -0.06650537 -0.020984283 -0.069445826 0.0048661367 0.02546493
0.017732173 -0.051489986 0.05319163 0.049530216 0.0018534511 0.0043233484 0.010666981 0.012428775
0.00010262182 0.029014379 -0.05031458 0.021940738 -0.03007929 -0.011004976 -0.00053735496 0.05426099
00000000: 9987 8fbd af9d 3fbc 1821 6cbc b842 81bd
00000010: 826e 643d 1258 603d 96e5 023d 9e0d 093d
00000020: 9229 0c3d 855f 18bd d836 abbc e755 febb
00000030: 50a7 82bb 09c7 243d fc26 86bc ceb0 793d
00000040: 8875 7c3d f05d 4a3d e0de 9e3c 82fd 1b3d
00000050: b849 c93c a819 1ebc 882d c23b 15ea c83c
00000060: b840 4f3d 2e65 183d 8b9c 7fbc f429 073d
00000070: 08c8 073d f85d c8bc 40cd 5cbc 6f96 483d
00000080: e4b4 cbbc 6283 76bd 6867 e53c a687 2e3d
00000090: 8678 5bbc caeb 5e3d a465 053d 3341 80bd
000000a0: a645 36bd 9a99 dabc 72fa 55bd 5b8a 2f3c
000000b0: 4f02 8ebc 808f 9fbb 202c 02bb 65a0 8c3c
000000c0: c774 4d3d 1813 763c 982a 53bc 98d4 583c
000000d0: dc4f 4ebd f07e 413d 5a80 6abd 1e02 73bd
000000e0: 363d 173d 982d f43c 64aa 0a3d 9792 c0bb
000000f0: 6259 4e3d 3ee0 85bd dbb1 c73b 403b c5ba
00000100: e009 71bb 617b 1dbd 989e 723c e83b 34bd
00000110: 505d debb 90a1 ee3c 3c51 ffbc 8079 96ba
00000120: 8e5c 58bd 17c2 613c 46ea 48bd 4ec5 003d
00000130: 688a 413b c038 ca3a 48d8 ffba 99c9 213d
00000140: 6ff0 0bbd 70d3 55bd 00fd 21bb 02ff 633b
00000150: b8c3 d63c 74af 08bb 902b 2bbd baec 053d
00000160: 0015 c83c 586b 34bc 82ae 57bd 70c2 acbc
00000170: f8a9 03bd 5fad f4ba b847 023c a4ae 82bd
00000180: 9c22 b33c 48e2 773c 1602 053d 3e27 873c
00000190: 003d 59bd 7e27 1bbd c0c9 a83c 2668 2cbd
000001a0: 2058 67bb c663 363d 74fc 37bd 3025 ed3c
000001b0: 7052 6bbc a69d 5c3d 50c2 8abb eecf a43b
000001c0: 95e7 00bc c2b2 193d 8cf6 203d 6853 2a3d
000001d0: 5ed1 2fbd d056 cebb a77d 1dbd d7a9 a13c
000001e0: b8fc 093c 7555 c0bb 58b3 6b3d 2051 2fbc
000001f0: 28f5 06bd 7ff6 f2bc 3a33 0abd a03b a6bc
00000200: a0e3 0abd 3c8a e93c ac61 05bd c40f 573d
00000210: c81d ee3c 1cfa 033d 0135 07bd 8e32 23bd
00000220: 601a 633c 31eb 6bbd 4e6b 3b3d 380a 393c
00000230: 68b3 393c 922d 0bbd c811 03bc fe00 09bc
00000240: 4893 dd3c 5857 073c 4459 04bd 46e8 4abd
00000250: 28ad 5d3c 5c99 613d a6d3 33bd 4894 3fbd
00000260: b01d 32bc c4ad dbbc 0c72 eb3c 60c1 c8bb
00000270: 2800 ab3c 8076 10bc 84a6 edbc 94ff af38
00000280: e0ac 4abd 2c51 34bd d3e8 9bbc 6ce5 2fbc
00000290: 9e6b 773d badc 073d 9ca0 d2bc a5f1 e43c
000002a0: 4028 85bc 361e 30bd 3c90 003d 66de 36bd
000002b0: 57b5 bf3c 1855 0fbd 50db dcbb c074 9c3a
000002c0: 0832 153c b294 1dbc be5d 253c eef4 8dbc
000002d0: 90f4 2b3d 3e16 013d 2492 1fbd 356d e13c
000002e0: cac8 a0bb 00c0 093b c9d4 f2bc 00a3 80bd
000002f0: dc37 9fbc ce8e 883c c6dc 733d 6c5f 803d
00000300: ce18 57bd e8fd 123d 20e6 1e3c e1df 8bbd
00000310: 0126 033d 3011 5abd 2e8b 27bd 586b a73c
00000320: 70b5 20bd 60e6 5e3d cbe7 2d3d 06d3 0fbd
00000330: 4457 debc a421 c93c 30ef babc ed42 4bbb
00000340: 54e5 dcbc b991 003d f459 61bc bcbd 9a3c
00000350: ca17 a53c 9610 03bd e955 16bd c451 173d
00000360: ae9c 11bd deb8 41bd 867a 4cbd 5045 3bbd
00000370: 76e8 21bd 7a3e 3d3b b8cf 1d3b a0ff eb3b
00000380: 1072 bfbc 1d15 5b3d a03c b33b a24c 88bd
00000390: aaeb 50bd 3022 9e3b 64a4 88bc 56cc 4ebd
000003a0: fcd5 a83c 2033 683c 5c55 cebc f833 88bd
000003b0: 3be7 abbc 9d39 8ebd 1d74 9f3b d49b d03c
000003c0: 1043 913c 2ae7 52bd 77df 593d 32e0 4a3d
000003d0: 80ef f23a e0aa 8d3b 90c4 2e3c 10a2 4b3c
000003e0: ac36 d738 90af ed3c a916 4ebd 10bd b33c
000003f0: d868 f6bc 374e 34bc 48dd 0cba c640 5e3d

model.4.bias f4 [128]
-0.02874706 0.024881577 0.11000273 -0.0051555973 -0.016855499 -0.06806755 0.11218752 0.050917685
0.048651524 0.053019576 -0.035158772 -0.06403857 0.05445665 -0.00867169 0.037555132 -0.02399617
-0.03772612 0.0661656 -0.04715261 0.01585871 -0.025367029 -0.05833491 0.04418107 0.04514921
0.02976206 0.011671064 0.1254994 0.0501436 0.093372874 -0.0480264 -0.074364886 0.0152299395
0.007703679 0.15606916 -0.005139941 0.16019858 0.030598095 0.048839122 0.0981402 -0.047409087
0.07109596 0.0041714055 -0.03970294 -0.04499578 0.014598672 0.00019776296 0.057669483 0.04073533
0.017811017 -0.045658823 0.06560026 0.15677655 0.08179617 0.08765355 -0.01411628 0.02956047
0.010458635 0.0041510263 -0.05121185 -0.028982483 0.07843217 -0.052870896 0.020057434 -0.022368971
-0.003415184 -0.0044246092 0.00066198397 0.008134916 -0.072160065 -0.013327826 0.072094336 0.0785282
0.08685544 0.11027825 0.046548504 -0.04980288 0.07821632 -0.03802337 0.0110933855 -0.050259095
0.104381666 0.042124953 -0.045219995 0.122069634 -0.054462735 0.049756978 0.0757137 0.010843191
-0.062493302 0.092306614 -0.006509058 0.08762722 0.026401099 0.06473748 0.020947836 0.10984116
-0.0040979055 0.07177933 0.09002763 0.057327278 -0.047777005 -0.061844964 -0.033600613 -0.05508536
-0.068003386 0.0798997 -0.006666243 0.06969908 -0.0892104 -0.06488237 0.057058476 -0.037236094
-0.065669425 -0.026205292 -0.006217463 0.006629977 0.08843154 0.12536497 0.08483864 0.08872837
0.0094875 -0.013617353 0.03718146 0.06578071 0.027868167 0.0784486 0.03726595 0.041851204
00000000: f47e ebbc 73d4 cb3c 1c49 e13d 49f0 a8bb
00000010: 8b14 8abc 0067 8bbd 92c2 e53d 108f 503d
00000020: d246 473d 0e2b 593d a502 10bd a726 83bd
00000030: f00d 5f3d b413 0ebc 69d3 193d 9e93 c4bc
00000040: b486 1abd d581 873d 1823 41bd 20ea 813c
00000050: 84ce cfbc 96f0 6ebd 36f7 343d 61ee 383d
00000060: 90cf f33c fe37 3f3c ea82 003e 6063 4d3d
00000070: 473a bf3d 55b7 44bd 9e4c 98bd ff86 793c
00000080: 256f fc3b 98d0 1f3e f36c a8bb 190b 243e
00000090: dba8 fa3c 880b 483d bbfd c83d 0830 42bd
000000a0: c29a 913d 49b0 883b 8d9f 22bd 7f4d 38bd
000000b0: 452f 6f3c 975e 4f39 d636 6c3d 17da 263d
000000c0: 69e8 913c bf04 3bbd 6e59 863d 088a 203e
000000d0: c084 a73d b483 b33d f847 67bc cc28 f23c
000000e0: b25a 2b3c 5505 883b 84c3 51bd ac6c edbc
000000f0: 0ca1 a03d 278f 58bd 7d4f a43c 223f b7bc
00000100: 48d1 5fbb 50fc 90bb fe88 2d3a 5048 053c
00000110: a8c8 93bd f45c 5abc 32a6 933d 65d3 a03d
00000120: 44e1 b13d 90d9 e13d a5a9 3e3d 1bfe 4bbd
00000130: e12f a03d 65be 1bbd 08c1 353c 7bdc 4dbd
00000140: 0ec6 d53d 378b 2c3d 9a38 39bd a5ff f93d
00000150: 5114 5fbd f9cd 4b3d c90f 9b3d a4a7 313c
00000160: faf8 7fbd 400b bd3d f049 d5bb e675 b33d
00000170: 1e47 d83c 1595 843d cc9a ab3c 67f4 e03d
00000180: b947 86bb 0b01 933d 6860 b83d 02d0 6a3d
00000190: d2b1 43bd 2551 7dbd cca0 09bd 30a1 61bd
000001a0: 5c45 8bbd 74a2 a33d 8070 dabb 64be 8e3d
000001b0: f1b3 b6bd 0ce1 84bd 26b6 693d e084 18bd
000001c0: b17d 86bd 7bac d6bc dcbb cbbb 4740 d93b
000001d0: 981b b53d ad5f 003e e2bf ad3d 38b7 b53d
000001e0: 7671 1b3c 511b 5fbc 964b 183d 09b8 863d
000001f0: c84b e43c a9a9 a03d 2ea4 183d 2b6c 2b3d

model.6.weight f4 [11, 128]
-0.055084873 0.041785285 -0.14680979 -0.080354795 -0.04825384 -0.011891508 -0.1715334 -0.08547974
0.07922369 -0.07597443 0.022681486 0.029790528 0.09731667 0.07332473 -0.17983206 -0.016317308
0.06798095 -0.05232735 -0.0040790443 -0.009649396 -0.06037908 -0.08931329 -0.021109793 -0.034689933
-0.14135726 -0.27444687 -0.036967114 -0.053907372 -0.09230299 -0.04606287 0.054130405 0.07664917
-0.08800515 0.11010238 0.077764995 0.07691706 0.06676292 0.06610359 -0.0694763 0.06718574
-0.30082405 -0.06673889 -0.01824235 -0.073709644 -0.079755895 0.03936515 0.014793239 0.09215268
0.023289518 -0.020725604 -0.13344285 -0.032042637 0.009223657 -0.13447706 0.0060731173 -0.021543548
-0.080318965 0.011246122 -0.087762445 -0.073509715 0.027222907 -0.011191089 -0.058274806 0.07199626
-0.02283238 0.07309114 0.008389937 -0.0027758256 -0.019809183 0.028761256 0.038510907 -0.0614603
-0.08319196 -0.059239864 -0.01989953 -0.08760382 0.11287263 0.043758843 0.0028690337 0.046724413
0.04136045 -0.04010065 -0.026210546 0.11215042 -0.08108171 -0.21915972 -0.029356746 -0.1212441
0.073628314 -0.09959632 0.036657996 -0.13117972 7.265213e-05 -0.048174523 -0.07865804 0.031183729
-0.1568183 0.08576205 0.05945714 -0.18517745 0.07411056 -0.009098451 -0.08022574 -0.07075779
0.028815016 -0.096004605 0.041567855 -0.0872347 -0.13059433 0.051086105 -0.11467292 -0.037001897
-0.0063853916 0.016605558 0.048295736 0.07176919 0.11366031 -0.062789425 0.13031101 0.097157136
-0.1582551 0.013061759 0.08124536 0.05117826 0.022510387 0.10083335 -0.05983039 -0.013966375
-0.080102846 0.06912115 0.18536212 -0.06833658 0.0038001912 0.014310038 0.17816015 0.077118635
0.047992203 0.052915838 0.0057089617 0.01588676 -0.12311442 0.004637204 0.11966403 0.061299957
-0.062348925 0.10474762 0.067113474 -0.056353476 0.06511734 -0.016833153 -0.6973207 0.16492888
0.049024247 0.11044644 0.1346693 0.07237694 0.14020793 -0.0036743872 -0.060748413 -0.23821317
0.05469639 -0.13084084 -0.5572595 0.112025484 0.08012963 -0.07336969 0.14301018 0.069842674
0.09235203 -0.05763316 0.0028020788 -0.050149783 0.12736312 0.07517212 -0.19868161 -0.009836067
-0.019455146 -0.021306233 0.194069 0.08329656 -0.17791253 0.13268526 0.004241325 -0.081142224
-0.63977677 -0.015571202 0.03538049 0.020872915 -0.5194349 0.08056979 -0.21508144 0.02751476
0.07630591 0.082582034 -0.67305815 0.013060309 -0.06025045 -0.64969075 0.1673673 0.16794665
0.16181037 0.13898343 0.09476719 -0.040758792 -0.46238443 0.007890051 0.12333037 -0.014998283
0.1534923 -0.62963074 -0.0743474 -0.13841526 -0.07386937 0.19435634 -0.15723203 0.116706125
0.009123117 0.11647491 0.0065034926 0.11738538 0.07369883 -0.7024794 0.13539055 -0.4320299
0.09737026 -0.0892913 -0.04612627 0.101827376 -0.021272704 0.05927152 -0.060130663 0.061389506
-0.008781362 0.19300373 0.02719678 0.13816905 0.015479059 -0.02366905 0.17932342 0.016951852
-0.031297438 0.012007889 -0.0635943 -0.03402489 -0.0602191 0.17273481 -0.19157523 -0.0896905
0.10099588 0.03217647 -0.24665256 -0.0150819495 -0.08057533 -0.1575264 0.17045806 -0.89568377
00000000: ada0 61bd 0c27 2b3d 4e55 16be 0e91 a4bd
00000010: d2a5 45bd 99d4 42bc 74a6 2fbe 0010 afbd
00000020: 0840 a23d 7b98 9bbd 86ce b93c 440b f43c
00000030: f64d c73d 472b 963d e525 38be e0ab 85bc
00000040: 9939 8b3d 3455 56bd 81a9 85bb 8018 1ebc
00000050: 0e50 77bd e3e9 b6bd 72ee acbc 0817 0ebd
00000060: f5bf 10be 4d84 8cbe d46a 17bd facd 5cbd
00000070: 5a09 bdbd 6cac 3cbd d8b7 5d3d 3dfa 9c3d
00000080: 0b3c b4bd 5b7d e13d 4143 9f3d b186 9d3d
00000090: ffba 883d 5261 873d 9749 8ebd ad98 893d
000000a0: 9c05 9abe 66ae 88bd fb70 95bc 15f5 96bd
000000b0: 0f57 a3bd 5a3d 213d 575f 723c 8bba bc3d
000000c0: a9c9 be3c bec8 a9bc 3ea5 08be 243f 03bd
000000d0: d21e 173c 5bb4 09be 0001 c73b 187c b0bc
000000e0: 457e a4bd a841 383c ccbc b3bd 438c 96bd
000000f0: 9302 df3c d45a 37bc 90b1 6ebd c672 933d
00000100: f90a bbbc cfb0 953d f275 093c a0ea 35bb
00000110: de46 a2bc ba9c eb3c 9dbd 1d3d ccbd 7bbd
00000120: 8c60 aabd 80a5 72bd 5704 a3bc a269 b3bd
00000130: c429 e73d 793c 333d 6606 3c3b 1962 3f3d
00000140: 9369 293d 9440 24bd 80b7 d6bc 1faf e53d
00000150: 2b0e a6bd 686b 60be 8f7d f0bc d44e f8bd
00000160: 71ca 963d 28f9 cbbd b226 163d fa53 06be
00000170: d15c 9838 a652 45bd 7717 a1bd 0575 ff3c
00000180: fa94 20be 03a4 af3d 5489 733d 289f 3dbe
00000190: 47c7 973d ab11 15bc 654d a4bd 76e9 90bd
000001a0: 780d ec3c 109e c4bd 0e43 2a3d 1ba8 b2bd
000001b0: 85ba 05be aa3f 513d a3d9 eabd 4d8f 17bd
000001c0: 8c3c d1bb 6108 883c c0d1 453d bafb 923d
000001d0: bdc6 e83d be97 80bd 4070 053e 52fa c63d
000001e0: a00d 22be fd00 563c f863 a63d 4ca0 513d
000001f0: b467 b83c b781 ce3d b610 75bd 39d3 64bc
00000200: f60c a4bd 648f 8d3d 91cf 3d3e 0df4 8bbd
00000210: a10c 793b a674 6a3c 9d6f 363e 60f0 9d3d
00000220: 7993 443d 47be 583d 3e12 bb3b f324 823c
00000230: 6a23 fcbd b0f3 973b 6a12 f53d aa15 7b3d
00000240: 9661 7fbd ec85 d63d ca72 893d e7d2 66bd
00000250: 3d5c 853d aee5 89bc 9c83 32bf 1ee3 283e
00000260: a6cd 483d be31 e23d c0e6 093e 5c3a 943d
00000270: ab92 0f3e fdcd 70bb 54d3 78bd 27ee 73be
00000280: 5209 603d 24fb 05be 8fa8 0ebf 9e6d e53d
00000290: 011b a43d d942 96bd 4371 123e ad09 8f3d
000002a0: 1023 bd3d c010 6cbd 15a3 373b dc69 4dbd
000002b0: 7a6b 023e d7f3 993d 3173 4bbe 7527 21bc
000002c0: 6660 9fbc 698a aebc 06ba 463e 6397 aa3d
000002d0: b42e 36be a5de 073e d0fa 8a3b e52d a6bd
000002e0: 69c8 23bf 5b1e 7fbc 22eb 103d adfd aa3c
000002f0: b0f9 04bf c601 a53d 4f3e 5cbe a266 e13c
00000300: 4646 9c3d c520 a93d 8a4d 2cbf e8fa 553c
00000310: 2dc9 76bd 2252 26bf 5562 2b3e 35fa 2b3e
00000320: 9eb1 253e ac51 0e3e 4d15 c23d b1f2 26bd
00000330: a7bd ecbe 4645 013c a294 fc3d 5cbb 75bc
00000340: 162d 1d3e 7b2f 21bf 7343 98bd bbbc 0dbe
00000350: d348 97bd 5905 473e 6f01 21be 9f03 ef3d
00000360: 2079 153c 668a ee3d 401b d53b bf67 f03d
00000370: 6aef 963d b1d5 33bf d2a3 0a3e 0633 ddbe
00000380: 0f6a c73d 5bde b6bd e6ee 3cbd df8a d03d
00000390: 1844 aebc b1c6 723d 924b 76bd 9073 7b3d
000003a0: b4df 0fbc c5a2 453e c8cb de3c 307c 0d3e
000003b0: e19b 7d3c 98e5 c1bc 8fa0 373e 9cde 8a3c
000003c0: be31 00bd bdbc 443c ba3d 82bd af5d 0bbd
000003d0: 4ea8 76bd 65e1 303e 4c2c 44be a7af b7bd
000003e0: eed6 ce3d 79cb 033d 7d92 7cbe 481a 77bc
000003f0: ae04 a5bd 9a4e 21be 8f8c 2e3e 884b 65bf

model.6.bias f4 [11]
0.050160907 0.020482 0.13491009 0.013234878 -0.0338738 -0.1592748 -0.13023226 -0.019758297
0.059206087 0.09533258 0.06022281
00000000: 8675 4d3d dec9 a73c df25 0a3e 1ad7 583c
00000010: 41bf 0abd ef18 23be 9b5b 05be 27dc a1bc
00000020: 1582 723d ba3d c33d 31ac 763d
