MNIST classification with MLP optimized with Optuna/best_model_with_dropout.pt (torch, 456750 bytes, 20 tensors)

network.0.weight f4 [128, 784]
000000 0a 3b ff bc 0e 96 cb 3c 7c ee 8f 3c 80 b9 61 3b
       -0.031156082 0.024851825 0.017569773 0.0034442842
000010 ee f3 25 bc 73 48 b9 bc 37 77 10 bd c0 46 88 ba
       -0.010128958 -0.022617554 -0.035269942 -0.0010397062
000020 0a 04 8b bc c7 fa 86 bc 0c cd d2 bc 06 3c 69 bc
       -0.0169697 -0.016477002 -0.02573254 -0.014235502
000030 db fe a3 3c e7 dc 7e bc eb c6 66 3c d6 a9 dd 3c
       0.020018985 -0.015555597 0.014085512 0.027058523
000040 2c 0e 07 bd 53 88 09 bd be 7c e5 3c b8 08 b5 bc
       -0.0329725 -0.033577275 0.028013583 -0.022098884
000050 90 62 28 3b 48 f6 e3 3b 7c ae c5 3c 4c 45 a5 bc
       0.0025693513 0.0069568492 0.024131052 -0.020174645
000060 3a 98 a4 bc 06 79 53 bc 4e c4 db bc cc 48 97 3c
       -0.020092119 -0.012907272 -0.026827004 0.01846733
000070 1e 64 ec bc a0 0f e7 ba 93 b3 0a 3d 68 a8 a4 3b
       -0.028856333 -0.0017628558 0.03386266 0.0050249584
000080 1f 17 12 bd 3a 6f eb 3c da 8f a8 bb a1 7a e4 bb
       -0.03566658 0.02873956 -0.0051441016 -0.0069726263
000090 17 f5 f1 3b 23 1d 99 3c 8e 8a d8 3b 8a bb 93 3c
       0.0073839533 0.018690651 0.006608314 0.018033762
0000a0 10 f3 17 bd 90 5d 35 bc 25 3c 7e ba 3c 97 e9 3b
       -0.037097037 -0.01106967 -0.0009698293 0.0071286242
0000b0 b5 f2 0b 3d 8f ba a3 bc 19 d7 06 bd e2 70 59 bc
       0.03416701 -0.019986419 -0.032919977 -0.013271542
0000c0 f8 81 26 bc cc ec da 3b d2 d4 a3 3c fb 93 9f bc
       -0.010162823 0.0066810604 0.019998942 -0.019479742
0000d0 aa 59 2a bc 13 ee f0 bc e5 d7 87 bc 80 48 c2 39
       -0.010397354 -0.029410398 -0.016582439 0.0003705658
0000e0 ae 70 af 3c 8e 95 a6 bc 7b 29 ba bb 9b 0e 25 3c
       0.021416035 -0.020334985 -0.0056812144 0.010074283
0000f0 4c 35 f0 3b fd c0 c0 3c 28 aa 99 bb e8 ca 38 bb
       0.007330572 0.023529524 -0.0046894737 -0.0028197113
000100 19 68 4f bc ca c6 5f bb 55 8e aa 3c cb 08 c3 bc
       -0.012659096 -0.0034145587 0.020819822 -0.023807904
000110 f8 62 18 3d 98 44 eb 3b 4d 9c 91 3a 04 dc 2b bc
       0.03720376 0.007179808 0.0011109203 -0.0104894675
000120 3a e3 49 3c fd f9 9e 3c 09 9b b9 bc d6 97 2b bc
       0.012322241 0.019406313 -0.022656934 -0.010473212
000130 e9 fa 8a bc 4b 53 76 bc 23 96 cb 3c 99 33 8d bc
       -0.016965346 -0.015034507 0.024851864 -0.017236518
000140 9d 88 df bc dc cc dd 3c 30 5e aa 3b 1a 0d a2 3c
       -0.027286822 0.027075224 0.0051992163 0.019781638
000150 18 8a 0e 3c 30 c3 a3 bc 1b 0d 9f bc f1 c4 e3 bc
       0.008699916 -0.019990534 -0.019415429 -0.02780387
000160 03 85 60 ba ed a1 eb 3c 87 6e ee 3c ad 69 09 bc
       -0.0008564742 0.028763736 0.029105438 -0.0083870115
000170 6c 40 d8 3b cc cf 08 3a d8 f9 1f 3d ed 33 27 3c
       0.0065994766 0.00052189524 0.03905663 0.010205251
000180 bc fd 12 3d 31 3c 48 3d ab cb 98 3c 63 b6 c3 3c
       0.03588651 0.048885528 0.018651804 0.02389068
000190 62 38 9f 3b 11 6a 59 bc 39 a3 8a 3a 2a 15 5e bc
       0.0048590163 -0.013269917 0.0010577209 -0.013554851
0001a0 a9 89 f5 3c 0d 0a 95 3c f7 27 d7 3a 53 a7 0d bd
       0.029972868 0.01819327 0.0016415109 -0.0345834
0001b0 2e fd ff bc f2 c1 dd bc bb 3b 25 3b f6 af ff 3c
       -0.031248655 -0.02707002 0.0025212604 0.031211834
0001c0 38 e7 ec bc 50 dc 9f bc ec 68 d0 3b 96 ff 85 3c
       -0.028918847 -0.019514233 0.006360164 0.016357224
0001d0 8e b7 0a 3d 4c cb 5a 3c 39 72 cb bc 6d 3e ca 3c
       0.033866458 0.013354134 -0.024834739 0.02468797
0001e0 72 ba b3 3c a5 12 72 3d f9 d3 91 3d d1 bb 79 3d
       0.02193949 0.059099812 0.07120509 0.06097013
0001f0 21 0a 11 3d 36 dd e1 3c 88 60 08 bb f1 28 5a 3c
       0.03541005 0.027571302 -0.002080949 0.013315425
000200 d6 27 4a 3b 55 1a 16 bc e5 b9 51 3d d4 6e 8d 3c
       0.0030846498 -0.0091615515 0.051202673 0.017264761
000210 9b 15 d4 3c b7 bd 31 3d 05 f5 fc 3c a0 ce 4c bc
       0.025889209 0.043393817 0.030878553 -0.012500435
000220 0e 5a 86 3b 40 a7 d5 bc c0 06 2f 3c 43 20 c1 3c
       0.004100091 -0.026080728 0.010682762 0.023574954
000230 f0 14 76 bb 4e ec b1 3c 05 07 8e bb 4e f7 09 3b
       -0.00375491 0.021719124 -0.004334333 0.0021051946
000240 f8 7a 10 3d b1 e8 08 bd 9c 55 ae bc 82 fa aa bb
       0.035273522 -0.033425037 -0.021281056 -0.005217851
000250 92 ec 63 bc 58 b6 c0 bc 9f 4f 7d bc b7 c1 a5 3c
       -0.013911383 -0.023524448 -0.015460878 0.020233972
000260 be 12 ad 3c b8 90 f7 3c b7 8f 76 3b d0 ae 93 3d
       0.021127101 0.030220374 0.0037622282 0.07211077
000270 5b 2c 63 3d 83 d5 71 3d ac 00 c9 3c 60 da c6 3c
       0.055462223 0.05904151 0.024536453 0.024274051
000280 09 fe 1a 3d 06 e0 31 bc 27 0a c7 bc 1e 68 ad 3b
       0.037839923 -0.010856634 -0.024296833 0.0052919528
000290 f6 81 cb 3c 57 d4 bd 3b f9 2e ef 3c 53 e0 e0 bc
       0.024842244 0.005793135 0.029197203 -0.027450716
0002a0 de 16 f3 bc b0 ed 67 3c 7f 65 80 bc a6 c0 88 bc
       -0.02967399 0.01415579 -0.015673397 -0.016693424
0002b0 43 31 61 bc 9b 38 8f 3c da 09 a1 bc 4e 13 d9 bc
       -0.013744655 0.017483046 -0.019658018 -0.026498463
0002c0 e1 ee 8c 3c c8 aa f1 bc 01 ef a0 3b d6 6b f6 3b
       0.01720375 -0.02950038 0.004911304 0.0075201793
0002d0 bb 36 2b 3d bc d8 bc 3d 9c f0 be 3d 90 62 54 3d
       0.041800242 0.09221026 0.09323236 0.05185181
0002e0 23 bc 91 3d c2 0c 9e 3c 3e 1b 0b 3c f1 3b 99 bc
       0.07115962 0.019293193 0.008490382 -0.01870534
0002f0 21 a6 ff bb f7 ae 0b 3d 4d 6c dc bc 5d 48 39 3b
       -0.0078017865 0.034102406 -0.02690711 0.0028271892
000300 5b fc c1 bc 59 56 73 bc e3 51 7b 3c 47 d0 e8 3c
       -0.023679903 -0.01485213 0.0153393475 0.028419627
000310 d6 01 a8 bc 0e 98 ff 3b 7e d1 af 3c 5f 95 42 bc
       -0.020508688 0.0078001088 0.021462198 -0.011876433
000320 c5 3b 3a 3c 85 9e f4 3b 82 d5 15 3c 29 29 1c 3d
       0.011366789 0.007465186 0.0091451425 0.03812519
000330 41 ed 61 3c 88 79 4d bc 9a 1b b8 3c 25 1b 1c 3d
       0.013789476 -0.012541182 0.022474099 0.038111825
000340 02 c0 4a 3d 02 e1 4f 3d 6a f4 b3 3c 3d 78 ab bc
       0.04949952 0.050751694 0.021967132 -0.020931358
000350 da 48 5d bd 71 66 81 bd ec 0b 5a bd 92 6f 2f bd
       -0.054024555 -0.06318367 -0.053234026 -0.04283101
000360 cc a4 c9 bc 1b 0e ff 3a 95 52 c9 3c b7 7a 17 3c
       -0.024614714 0.001945916 0.024575511 0.009245566
000370 18 51 94 3c b3 29 9a bc 37 82 65 3a a2 b6 e7 bb
       0.018105075 -0.018818712 0.000875506 -0.007071332
000380 5e 17 35 3b 0c 3b 0a bd 83 9f 04 bd e1 f8 32 bc
       0.0027632336 -0.033747718 -0.032378685 -0.010923595
000390 aa 5f 15 bb 83 18 e3 3c 7a 24 99 3c b8 71 b5 bc
       -0.0022792616 0.027721649 0.018694151 -0.022148952
0003a0 40 da 9a 3c 21 2b ad 3c be 62 9b 3b b9 fa 4b 3c
       0.018902898 0.02113873 0.0047419956 0.012449914
0003b0 a5 cb 66 bd 70 76 96 bd 1f f6 52 bd 9d 0b 2a bd
       -0.056346554 -0.07346809 -0.05150425 -0.04151498
0003c0 4a ca df bc 6d 1c 25 3c dc fb 18 bb 9b d0 70 bc
       -0.027318139 0.010077578 -0.002334348 -0.014698173
0003d0 a2 d1 17 3c c3 af d0 3b e5 5f 48 3c 64 a5 81 3c
       0.009266289 0.0063686087 0.012229894 0.015825935
0003e0 80 0c 04 3d a1 fa 34 3c 4b 1a b6 3a 9e 4b ac 3c
       0.032238483 0.011046083 0.0013893334 0.02103215
0003f0 13 64 1f 3b f3 0e 81 bc 7c d8 03 bc b1 7c f4 bc
       0.0024321123 -0.015754199 -0.008047219 -0.029844614

network.0.bias f4 [128]
000000 e7 da 08 3d ce ca 83 bc 30 03 a5 bc 0a f5 aa bc
       0.033411887 -0.016087916 -0.020143121 -0.020868797
000010 48 1e c5 bc 1c 0e a7 bc 80 ac 81 bb 26 d9 dc 3c
       -0.02406229 -0.02039247 -0.003957331 0.026959013
000020 b0 c7 c7 3c 18 36 48 3c b0 a8 a7 bb c0 74 5d 3c
       0.02438721 0.012219928 -0.0051165447 0.013516605
000030 82 ce f3 3c ca d1 05 bd fa 51 e5 bc 40 cd 6f 3c
       0.029761557 -0.032670774 -0.027993191 0.014636338
000040 e0 74 69 bc 65 97 8e bc c4 da 41 3c ee 1f 29 bc
       -0.014249057 -0.017406175 0.011831943 -0.010322554
000050 af 3b 26 ba 72 31 fc 3c 50 54 43 3c 94 ae 96 bb
       -0.0006341291 0.030785296 0.011921957 -0.004598448
000060 47 a8 81 bc 1c 33 4a 3c c8 cd fc bc ce 26 5a bc
       -0.015827311 0.012341287 -0.030859843 -0.013314916
000070 f8 55 d6 bc 38 5c 89 3c 44 f3 35 3c 28 03 6d 3c
       -0.02616404 0.016767606 0.011105362 0.014466085
000080 d0 dc 85 bb 57 a9 00 bd 08 8f a0 3c b0 17 67 3b
       -0.004085161 -0.031411495 0.019599453 0.0035261922
000090 1c 4a b9 3c 58 35 d5 3c a0 52 5d 3b c8 0b 8f 3c
       0.022618346 0.026026413 0.0033771172 0.017461672
0000a0 86 08 e9 3c ad e5 04 bd 38 db 35 bc cd 56 05 3d
       0.028446447 -0.0324456 -0.011099629 0.032553483
0000b0 3e 2d de 3c 5c 64 61 bc be 47 a4 bc 67 fd 07 bd
       0.027121183 -0.013756838 -0.02005374 -0.033200648
0000c0 8e 06 fe 3c e4 38 7f 3c 4e 5b 04 bc 35 74 b1 bc
       0.031008985 0.015577529 -0.008078409 -0.021661857
0000d0 e7 12 84 bc 80 0f c8 bb 14 5f 72 3c 68 c5 0a bd
       -0.016122295 -0.0061053634 0.014793176 -0.033879668
0000e0 9c a1 96 bc f0 2d 83 bc 2a 49 0f bd c0 ae 9f ba
       -0.018387608 -0.016013116 -0.034981884 -0.0012182817
0000f0 9c 77 fd bb 96 69 f2 3c 28 a9 d2 3b 68 a5 99 3b
       -0.007735206 0.029591363 0.0064288564 0.0046889074
000100 70 63 9d 3b 44 a7 23 3c 4c 41 e9 bc 75 c7 cd bc
       0.0048031136 0.00998861 -0.028473519 -0.025119523
000110 70 79 3b 3b 72 99 e4 3c b4 40 4e 3c 52 4a 01 bc
       0.0028606318 0.0279052 0.012588669 -0.0078912545
000120 ac 3d 83 3c f0 00 a6 bc 58 e9 c0 3b 02 a7 8d 3c
       0.016020618 -0.020264119 0.0058871917 0.01729155
000130 f9 cb 0a 3d 28 a2 87 bb b3 54 0c bd 98 13 df bc
       0.03388593 -0.0041392036 -0.034260463 -0.027231023
000140 52 13 c6 3c 71 e2 fe bc 80 2b 5f 3c ba 60 c8 3c
       0.024179135 -0.031113835 0.013621211 0.024460185
000150 72 ea 05 bc 80 e4 09 bc 76 cd bd 3c 4d ad 07 3d
       -0.008173572 -0.008416295 0.02316926 0.033124257
000160 12 a4 08 bc 92 4a 44 bc 86 aa a4 3c 43 be f5 bc
       -0.008339899 -0.01198067 0.020100843 -0.02999795
000170 40 3d 8a ba 60 e6 2e bc 4a 6f 9d 3c 88 93 75 3c
       -0.0010546818 -0.010675043 0.019218106 0.0149887875
000180 38 ff 31 bc 4a 1a 1e bc 48 9a ed bb 08 f8 e0 3b
       -0.010864072 -0.0096498225 -0.007251058 0.006865505
000190 bc 48 91 3c d1 20 0a 3d ae 18 ea bc 38 5b cd 3c
       0.017734878 0.033722702 -0.028576221 0.02506791
0001a0 d8 61 87 3b 4e 98 0c bd 60 6c 91 bc 3c a0 87 bc
       0.004131537 -0.034324937 -0.017751873 -0.016555898
0001b0 32 29 33 bc d4 56 4d 3c 45 74 00 bd b4 2f 34 3c
       -0.010935115 0.0125329085 -0.031360883 0.010997701
0001c0 5c 80 f1 bc f3 80 11 3d 60 c5 2d bc 9a e6 86 bc
       -0.029480152 0.035523366 -0.01060614 -0.016467381
0001d0 ba 53 8c bc 75 af bc bc 30 29 cf bc 00 69 69 3c
       -0.017129768 -0.023032883 -0.025288194 0.014246225
0001e0 1b 25 00 3d c0 2e e0 3b 47 ae 0e bd 9c 0e e5 bb
       0.031285387 0.0068415105 -0.034834173 -0.006990267
0001f0 54 40 2a 3c 4e 2b 1e bc 9a 42 26 39 c8 71 a2 bb
       0.010391314 -0.009653879 0.00015855805 -0.0049574114

network.1.weight f4 [128]
000000 44 f3 7d 3f 26 7f 81 3f 16 9d 7f 3f 17 4c 7e 3f
       0.9919932 1.0116928 0.9984907 0.99334854
000010 b0 23 7b 3f b9 10 7a 3f ac 6d 7f 3f 47 8e 7a 3f
       0.9810133 0.97681767 0.9977672 0.9787335
000020 05 bb 7c 3f 29 95 79 3f 5a 53 7b 3f 24 3a 7e 3f
       0.9872287 0.97493225 0.9817406 0.99307466
000030 e5 4a 7d 3f fe 17 80 3f f2 c7 79 3f 23 60 76 3f
       0.98942405 1.0007322 0.9757072 0.96240443
000040 be 83 80 3f 51 2d 7e 3f bf a0 7a 3f a4 63 7c 3f
       1.0040205 0.992879 0.9790153 0.9858954
000050 13 a8 7e 3f a8 7a 82 3f f5 a6 7b 3f 85 81 7b 3f
       0.9947521 1.0193682 0.9830163 0.98244506
000060 32 80 7a 3f 5c bc 79 3f 15 a0 80 3f 09 36 81 3f
       0.9785186 0.9755304 1.0048853 1.0094615
000070 13 3c 7d 3f a4 ba 7c 3f eb 8e 7e 3f f6 65 7b 3f
       0.9891979 0.9872229 0.99436826 0.98202455
000080 c2 09 7c 3f b8 43 80 3f 73 da 7d 3f c3 fb 7f 3f
       0.9845239 1.0020666 0.9916145 0.9999353
000090 b6 de 7a 3f 0a 4e 78 3f b8 0c 7b 3f e5 3d 7d 3f
       0.9799608 0.9699408 0.9806628 0.9892257
0000a0 80 0a 7c 3f 83 c6 7c 3f 47 ac 77 3f 01 65 81 3f
       0.9845352 0.98740405 0.9674725 1.0108949
0000b0 fa 49 77 3f 26 78 7d 3f 39 cd 80 3f 4e e9 7f 3f
       0.96597254 0.99011457 1.0062629 0.9996537
0000c0 1a 47 7b 3f e6 77 7e 3f f2 97 7a 3f 62 d8 7e 3f
       0.9815537 0.994017 0.978881 0.99548924
0000d0 9f c4 7e 3f fb 66 77 3f 39 d7 7c 3f 69 db 7d 3f
       0.9951877 0.9664151 0.98765904 0.9916292
0000e0 c5 52 7f 3f b9 23 7f 3f ca 57 77 3f 69 22 80 3f
       0.9973567 0.99663883 0.9661833 1.0010501
0000f0 68 f4 7f 3f f8 1e 7a 3f 0e 78 7d 3f a1 ca 80 3f
       0.9998231 0.97703505 0.99011314 1.0061837
000100 88 af 7c 3f f2 6d 7b 3f fb ab 7a 3f ce fb 7b 3f
       0.9870534 0.9821464 0.9791867 0.984311
000110 00 e5 7b 3f 36 8b 83 3f 6c 00 7d 3f fc 12 7a 3f
       0.983963 1.0276859 0.9882877 0.9768522
000120 eb 6e 82 3f 46 05 7b 3f b0 bb 80 3f 4f 7f 7f 3f
       1.01901 0.9805492 1.0057278 0.9980363
000130 43 40 85 3f a1 d1 7d 3f 61 db 7d 3f e6 a4 83 3f
       1.0410236 0.99147993 0.9916287 1.0284698
000140 fd 86 80 3f a8 80 7f 3f 0e 8a 82 3f f2 d6 7b 3f
       1.0041195 0.9980569 1.0198381 0.98374856
000150 53 fd 7d 3f ee ef 7e 3f de 0c 7d 3f d0 48 7f 3f
       0.9921467 0.99584854 0.9884776 0.9972048
000160 dd e7 7e 3f 79 b3 7c 3f 06 22 7c 3f ad 20 80 3f
       0.99572545 0.98711354 0.98489416 1.0009972
000170 88 f6 7c 3f 39 cd 7c 3f 53 5a 7a 3f 93 9b 7e 3f
       0.98813677 0.98750645 0.97794074 0.9945614
000180 a7 47 79 3f 9a 06 80 3f 32 b0 80 3f ad 29 78 3f
       0.9737496 1.0002015 1.005377 0.9693859
000190 71 1f 7c 3f bf 16 7c 3f 9c 91 7e 3f 2d b1 7e 3f
       0.98485476 0.9847221 0.9944093 0.994891
0001a0 27 1b 7f 3f 0b 93 76 3f 1e 8d 7b 3f 16 96 76 3f
       0.99650806 0.9631812 0.982622 0.9632276
0001b0 67 06 80 3f 8b 7d 79 3f 13 dc 7d 3f bb 1a 7d 3f
       1.0001954 0.9745719 0.9916393 0.9886891
0001c0 e2 da 81 3f 6b 77 82 3f 91 d1 7d 3f 8f 88 7d 3f
       1.0144923 1.0192693 0.991479 0.99036497
0001d0 54 8e 76 3f a3 92 73 3f db 3b 7a 3f a6 c0 79 3f
       0.96310925 0.95145625 0.9774758 0.97559583
0001e0 ae 99 81 3f 93 77 7d 3f e7 8b 7e 3f 9e d8 7e 3f
       1.0125024 0.9901058 0.99432224 0.9954928
0001f0 d9 25 7e 3f 96 56 7e 3f f7 5f 78 3f eb 04 7f 3f
       0.992765 0.9935087 0.9702143 0.9961688

network.1.bias f4 [128]
000000 7a b8 c7 bd e6 e9 3e be 19 71 80 bd f2 e3 bf bd
       -0.09751983 -0.18643913 -0.06271572 -0.09369649
000010 f0 3f f3 bd 81 97 20 be 3c a3 16 be 4a 7a 18 be
       -0.118774295 -0.15682794 -0.14710706 -0.148904
000020 d2 79 2e be cd 39 13 be ac 02 ec bd e9 5e f7 bd
       -0.17038658 -0.14377518 -0.11523947 -0.120786496
000030 72 13 c1 bd 2a 75 03 be 45 a2 df bd 22 fd f6 bd
       -0.09427537 -0.12837663 -0.10919622 -0.1206
000040 f8 34 c6 bd 1f 90 3a bd 0b 21 0d be 98 c8 d2 bd
       -0.09678072 -0.0455476 -0.13782136 -0.102921665
000050 79 24 be bd 9b c3 3b be e2 a4 a0 bd 17 4c f7 bd
       -0.092843 -0.18336336 -0.07843949 -0.1207506
000060 3e 72 af bd 3a 6f ee bd 65 5a 53 be 80 20 eb bd
       -0.08566712 -0.116423085 -0.20639952 -0.11480808
000070 be 40 1e be 64 71 01 be e8 a4 39 be 3a a4 17 be
       -0.15454385 -0.12640911 -0.18129313 -0.14808741
000080 98 43 18 be 8b 3d a7 bd 44 4d f8 bd 2a 84 4f be
       -0.14869535 -0.08166035 -0.12124112 -0.2026526
000090 a3 05 04 be e7 b2 96 bd f4 43 23 bd 5a 57 a7 bd
       -0.12892775 -0.07358342 -0.039859727 -0.08170958
0000a0 4a b3 c0 bd 15 7d 80 bd ab 52 01 be 70 06 3d be
       -0.09409197 -0.062738575 -0.12629192 -0.18459487
0000b0 bf e9 1e be 6f 09 20 be 5a d8 02 be 87 0a cd bd
       -0.15518855 -0.15628599 -0.12777844 -0.100117736
0000c0 5b a6 49 be 3f 3d 77 be 40 5f 1d be 44 67 06 be
       -0.19692366 -0.24144457 -0.15368366 -0.1312533
0000d0 62 04 fc bd e4 9b e0 bd bc 93 c3 bd b4 bd 39 be
       -0.123055235 -0.10967234 -0.095496625 -0.18138772
0000e0 2e 6c 4b be 10 ff 14 be ca 21 0f be 0f f6 a5 bd
       -0.19865486 -0.14550424 -0.13977733 -0.081035726
0000f0 d3 9e 16 be 29 0c 11 be 54 65 2b bd 0c 2d c4 bd
       -0.14709024 -0.14164795 -0.04184468 -0.095789045
000100 ca 7a e8 bd d6 22 ac bd d3 e7 2b be ec fe 3b be
       -0.11351545 -0.08405082 -0.16787653 -0.18358964
000110 c3 71 b9 bd a2 79 6f be 31 7b 99 bd 81 81 20 be
       -0.090549015 -0.23386243 -0.074942 -0.15674402
000120 18 8a 11 be 5b d3 10 be 58 12 9c bd a2 9b 1b be
       -0.14212835 -0.14143126 -0.07620686 -0.15196088
000130 15 cd 88 be 25 6c da bd ed e4 15 be 8b 0e 22 be
       -0.26718965 -0.10665158 -0.1463811 -0.1582586
000140 6d 93 a2 bd 55 93 01 be d6 59 02 be 73 79 e0 bd
       -0.079382755 -0.12653859 -0.12729582 -0.109606646
000150 88 58 1e be 47 03 21 be e7 0e 26 be c5 83 a4 bd
       -0.1546346 -0.15723906 -0.16216622 -0.080329455
000160 0e bf c7 bd 8c 26 8e bd 79 a0 03 be ab 63 50 be
       -0.09753238 -0.06940946 -0.12854184 -0.2035052
000170 cc 75 b6 bd a9 d7 08 be b9 76 34 be f4 33 05 be
       -0.08909187 -0.13363518 -0.17623414 -0.130081
000180 70 f7 21 be 8c 8a 02 be f2 be c9 bd d9 86 31 be
       -0.15817046 -0.12748164 -0.09850873 -0.17336597
000190 ef 43 2c be d6 8d c3 bd 42 8c 36 be 7f 29 0e be
       -0.1682279 -0.095485374 -0.17826942 -0.13883017
0001a0 a1 cd 33 be 66 95 13 be 8a 55 1d be 66 33 15 be
       -0.1755891 -0.1441246 -0.15364662 -0.14570388
0001b0 69 85 00 be 1e c0 1a be 99 f7 9a bd d9 05 fc bd
       -0.12550892 -0.1511235 -0.07566757 -0.12305803
0001c0 c6 ac 2d bd d8 62 72 be 02 98 3b be 3d ca 58 be
       -0.042401098 -0.23670518 -0.18319705 -0.21170898
0001d0 e3 38 de bd 6d ef 14 be f2 df 00 be 01 23 c4 bd
       -0.10850694 -0.14544459 -0.12585428 -0.09576989
0001e0 2b 52 23 be c0 74 f1 bd a9 f3 ac bd 57 fd 35 be
       -0.15949313 -0.117898464 -0.08444912 -0.17772423
0001f0 5e de d2 bd 43 be 22 be 95 79 2e be 91 b3 44 be
       -0.102963194 -0.15892892 -0.17038567 -0.19209124

network.1.running_mean f4 [128]
000000 15 e0 39 bd f3 40 91 be a5 02 03 3c fb 5a 9d be
       -0.045379717 -0.28369865 0.007996236 -0.30733475
000010 4d b1 43 bd 5b 99 fb be ef 34 aa 3d 5f d2 ac 3d
       -0.04777651 -0.49140438 0.083108775 0.084385626
000020 35 59 92 bd f4 5e 26 be ea 5d 16 be 93 10 2d be
       -0.07145921 -0.16247159 -0.14684263 -0.16900854
000030 68 2b e4 bd 35 c5 d3 bc 78 f5 08 be 80 b6 5d be
       -0.111410916 -0.025850872 -0.13374889 -0.2165165
000040 01 14 82 bc 44 0c 4a 3d cb 48 36 be 18 9d e1 3d
       -0.01587868 0.049328104 -0.17801206 0.110162914
000050 fa 72 5e be ea 67 20 bd 52 c9 26 3e 88 81 88 be
       -0.21723548 -0.0391616 0.16287735 -0.26661325
000060 fe 4f 58 3d 2e c8 0b be 2b ab ad bd 7c 3a 9b bd
       0.05281066 -0.13650581 -0.08479913 -0.075795144
000070 9f e5 f5 bd a3 b1 06 3d eb 27 16 bc 14 f7 4b bd
       -0.120066874 0.03288425 -0.009164791 -0.04979618
000080 b9 f1 29 bf cc 8f ba bd c7 10 1a be f4 7c c2 bd
       -0.66384465 -0.09109458 -0.15045463 -0.09496489
000090 10 20 84 bd 93 6a 01 3e 35 cd 8c bd 01 02 50 3e
       -0.06451428 0.12638311 -0.06875078 0.20313264
0000a0 9a 81 e7 bd 45 f8 d4 3c d3 5d 19 3e bd 13 0c be
       -0.113040164 0.02599729 0.14977197 -0.13679405
0000b0 20 0f 8d bc ee 59 40 be 26 08 1b bd 4a a2 26 3e
       -0.017219126 -0.18784305 -0.037849568 0.16272846
0000c0 ab 89 d7 be a2 8e 03 be 84 a9 4e 3c ae c8 76 3b
       -0.4209722 -0.12847379 0.012613658 0.0037656236
0000d0 23 a6 68 bc e1 9b 8d be 27 4b bf bb bc b0 21 be
       -0.014199766 -0.2765799 -0.0058378163 -0.15790075
0000e0 84 56 96 bd a6 ac d6 be c8 47 d0 bd 25 a7 f5 3a
       -0.0734072 -0.41928595 -0.10169941 0.001874183
0000f0 c0 75 6a be b2 99 47 3d 09 a8 b6 3d 89 4d b1 bd
       -0.2289648 0.04873056 0.08918769 -0.08657367
000100 a6 ae a2 3d 18 52 27 bd 27 12 c4 be 60 80 1c 3c
       0.07943468 -0.040849775 -0.382951 0.009552091
000110 28 1f 10 3e 16 2d 2e be 0d fd fb bd 6b 8a 95 bd
       0.14074385 -0.17009386 -0.12304125 -0.07301792
000120 ad b7 5b bc 22 d8 20 be 80 78 f7 3d 76 67 92 bd
       -0.013410491 -0.15707448 0.120835304 -0.0714864
000130 7f 5b 31 be c4 c2 d7 bb 49 2a d4 bd 0e 6a 08 be
       -0.17320059 -0.006584497 -0.10359628 -0.13321707
000140 7e 80 8c 3d 9c 25 80 bd 61 b9 4f bd 9c 83 48 3d
       0.068604454 -0.062571734 -0.0507139 0.048953637
000150 05 dc 90 bd 92 31 05 be 97 bb 34 bd 73 dd 72 bd
       -0.070732154 -0.13007191 -0.044124212 -0.05929322
000160 5f 95 13 be 38 c1 57 3d 9f 55 b1 3c cc 4e 56 be
       -0.1441245 0.052674502 0.021647273 -0.20928496
000170 34 79 8d be 90 c7 dd bd 72 0b c3 bd d3 67 0c be
       -0.27631533 -0.10829079 -0.095236674 -0.13711481
000180 31 cf 7d 3d d5 2d 26 3d 6a 5b f4 bd 0d 79 7e be
       0.06196517 0.040571053 -0.11931498 -0.24850865
000190 f5 53 37 3c 7d 7b fc bd f7 93 93 bd 44 c0 87 be
       0.0111894505 -0.12328241 -0.072059564 -0.26513875
0001a0 46 1d 8a be 86 a9 74 be df 1a c7 be 90 63 52 be
       -0.2697546 -0.23892793 -0.3888769 -0.20545793
0001b0 ab 0a 82 be 5a 75 6f bd 8b 62 f3 bb b3 d7 4c be
       -0.25398764 -0.058461525 -0.0074275187 -0.20004158
0001c0 fb f4 8e bd 98 40 07 bd 55 95 56 be fe e0 27 be
       -0.0698032 -0.033020586 -0.20955403 -0.16394421
0001d0 cf ab 97 3d d5 a8 63 be a7 46 a6 be 9d f0 00 3e
       0.07405817 -0.22232373 -0.32475778 0.12591787
0001e0 52 e1 06 be e5 0e 58 3d f4 2e 74 be 23 0e d1 be
       -0.1317189 0.05274858 -0.23846036 -0.40831098
0001f0 44 1d 02 be 71 1a 8d be 81 be ea bc b7 3a a8 be
       -0.12706476 -0.27559236 -0.028655292 -0.32857296

network.1.running_var f4 [128]
000000 c9 b4 c0 3d 41 33 ee 3d 29 8e af 3d be 44 03 3e
       0.09409482 0.1163087 0.08572037 0.12819192
000010 d9 8c a0 3d 8a 44 f5 3d 9d 96 06 3e e1 7c c0 3d
       0.078393646 0.119759634 0.13143392 0.09398819
000020 0c cf 93 3d 7c 10 bb 3d 7d e5 fb 3d 85 1d ff 3d
       0.072172254 0.091340035 0.12299631 0.12456802
000030 0d 4f e4 3d d1 54 f1 3d d4 5e c8 3d d3 3f 1b 3e
       0.1114789 0.117837556 0.09783712 0.15161066
000040 f9 c6 c7 3d f1 01 c7 3d dd 98 df 3d 7d 53 b5 3d
       0.09754748 0.09717167 0.10917828 0.08853815
000050 1a 40 e0 3d 2f ce f3 3d e6 35 db 3d c1 45 e8 3d
       0.109497264 0.11904561 0.1070364 0.113414295
000060 75 8a b1 3d 1a 8a bc 3d 8f ef e7 3d f4 2a 09 3e
       0.08668987 0.09206028 0.11324989 0.13395292
000070 01 57 81 3e 7d cb be 3d 78 f2 f4 3d 4f 0b ea 3d
       0.2526169 0.09316156 0.1196031 0.11427938
000080 26 eb 0b 3e 2a f5 e0 3d ba 83 f3 3d 46 65 17 3e
       0.13663921 0.10984261 0.11890359 0.14784727
000090 58 80 07 3e 7b 6e 88 3d 59 5d d4 3d 1c f7 d8 3d
       0.13232553 0.066616975 0.10369367 0.105940074
0000a0 98 1e f7 3d 7d 82 bd 3d 12 a7 99 3d 06 79 f8 3d
       0.12066382 0.09253404 0.07502569 0.121324584
0000b0 38 7d c8 3d 77 58 d7 3d 0e c4 10 3e 27 87 ba 3d
       0.097895086 0.1051492 0.14137289 0.091078095
0000c0 51 b9 2a 3e ee ce 01 3e 09 8c ab 3d 96 ae b9 3d
       0.16672255 0.12676594 0.08376319 0.09066503
0000d0 d5 95 ff 3d 4e 97 e7 3d 48 84 f3 3d cc 43 cc 3d
       0.1247975 0.11308156 0.11890465 0.09973869
0000e0 80 6e b6 3d 1c 45 1d 3e 62 32 b7 3d 03 95 20 3e
       0.08907795 0.15358394 0.08945157 0.15681843
0000f0 ec d0 2f 3e 2e 0d c7 3d 4e b5 0a 3e 75 cb 1c 3e
       0.17169541 0.09719311 0.13545725 0.15311988
000100 34 7a dc 3d 69 44 d2 3d ff ce fc 3d d3 03 05 3e
       0.10765496 0.102669545 0.12344169 0.1298974
000110 00 cb b1 3d 7b 45 09 3e a1 2c f5 3d 05 03 0a 3e
       0.08681297 0.13405411 0.11971403 0.13477714
000120 d9 73 d5 3d c5 45 09 3e f6 6c b5 3d 3b c1 e6 3d
       0.10422487 0.13405521 0.08858673 0.112673245
000130 d2 33 06 3e 33 93 b7 3d c0 32 07 3e df 95 07 3e
       0.13105705 0.08963623 0.13202953 0.13240765
000140 80 cc ec 3d d4 c4 ec 3d 66 29 e7 3d 75 02 9b 3d
       0.11562443 0.115609795 0.11287193 0.07568828
000150 34 84 2b 3e 7d 1e 27 3e 11 68 1d 3e 27 7c e9 3d
       0.1674965 0.16320224 0.1537173 0.11400633
000160 b2 40 37 3e 4a 5f e3 3d 32 1b c3 3d f3 1c d4 3d
       0.17895773 0.11102159 0.095266715 0.10357084
000170 75 22 d6 3d 06 52 f0 3d 39 3c b1 3d 0b 20 61 3e
       0.10455791 0.11734395 0.08654065 0.2198488
000180 7f 27 e4 3d e2 b0 d9 3d eb 79 0f 3e ce e4 fa 3d
       0.11140346 0.10629441 0.14011352 0.12250672
000190 5c c0 f4 3d 15 93 e9 3d d3 39 cb 3d 73 ec dc 3d
       0.11950752 0.11405007 0.099231385 0.107872866
0001a0 5d 2d 1d 3e 36 1b dd 3d 5f 45 f5 3d e8 80 bf 3d
       0.15349336 0.10796206 0.11976122 0.09350759
0001b0 2e a5 0a 3e ef e7 ed 3d a7 a1 ae 3d 43 f5 ca 3d
       0.13539574 0.116165034 0.085269265 0.09910061
0001c0 2e 12 eb 3d 75 7c e3 3d 95 c9 f6 3d d5 d2 eb 3d
       0.11478077 0.11107723 0.120501675 0.115148224
0001d0 28 10 c8 3d f5 61 f6 3d ab 9b 09 3e 14 7e cb 3d
       0.097687066 0.120304026 0.13438289 0.09936157
0001e0 cc 81 18 3e ad 15 d5 3d 4f be 0f 3e 0a ae 26 3e
       0.14893264 0.10404525 0.1403744 0.16277328
0001f0 04 62 e3 3d b2 38 ec 3d 23 80 c9 3d 0f 49 10 3e
       0.11102679 0.11534251 0.09838893 0.1409037

network.4.weight f4 [64, 128]
000000 6d d2 ca 3c fd d9 85 bd 3c 83 1e 3b 3a cb 5e 3d
       0.024758542 -0.065357186 0.0024187109 0.05439303
000010 fa 77 5a 3c 1a 14 00 bd 07 68 93 bd ba 86 2a 3d
       0.013334269 -0.03126917 -0.07197576 0.04163239
000020 48 3f 4d 3d 50 7d 02 bc d0 98 9c bd 8f 39 ec bb
       0.050109178 -0.007964447 -0.07646334 -0.00720901
000030 ca fa 04 be 0a cf 94 bd c8 fb 65 bd 0f e7 0e 3d
       -0.12986293 -0.07266052 -0.05614832 0.034888323
000040 46 9d 6e 3d ed ab 01 3d 6f 79 f3 bc 06 a2 2d bd
       0.058255456 0.0316581 -0.02972099 -0.042390846
000050 4b bf 45 bd 0b fb 90 bc 97 db c5 3d ad c8 03 3c
       -0.048278134 -0.017697832 0.09661024 0.00804345
000060 4c 95 cc 3b 26 7e 25 3d 8f 85 a1 bd e8 a3 b3 3b
       0.0062433835 0.040403508 -0.078868024 0.0054821856
000070 dc 55 4a bd 0a 07 14 3c 99 f2 14 3d 4c 3b fa 3c
       -0.049398288 0.009034881 0.03636417 0.030545853
000080 db 29 cd 3c 34 fd 44 3d ef 40 d1 bc bb 9c 9b bd
       0.025044372 0.048093036 -0.025543658 -0.07598253
000090 3e cb 1e bd 6b 79 ce 3c ce d8 8a 3d b7 a2 22 3d
       -0.038768046 0.025204381 0.067796335 0.03970596
0000a0 cb 2f a1 3c 33 c9 79 bc ca 89 ce 3c c4 02 dc bc
       0.01967611 -0.015245724 0.025212187 -0.026856788
0000b0 8a ca 9e bc 3e 12 14 3d 70 e5 01 bd e7 3c d5 3c
       -0.019383688 0.03615021 -0.03171295 0.026030017
0000c0 62 51 fd bc e2 46 e5 3c d1 16 47 3b 8a ed e9 3d
       -0.030922595 0.027987901 0.003037859 0.1142226
0000d0 b9 f1 6c 3c 16 ea a2 bc db 9d 15 bd 14 73 79 3d
       0.014461928 -0.019887011 -0.036527496 0.060900763
0000e0 9a d4 ba bb 7b 3c ed bd 49 e6 59 3c fb 57 7a 3c
       -0.0057016136 -0.11583801 0.013299533 0.015279765
0000f0 88 38 b8 bd ae d7 5a 3d 90 81 98 3d a6 42 1e bb
       -0.089951575 0.053428344 0.07446587 -0.0024148612
000100 b0 33 78 bc fe 42 97 3c a8 cd 62 bd 34 ff db bc
       -0.015149042 0.018464562 -0.05537191 -0.026855089
000110 eb 53 47 3d 72 20 78 bd df 28 69 3c 38 01 c6 bb
       0.048664015 -0.060577817 0.014230936 -0.0060426258
000120 ae ac e3 3d 52 d0 89 3b f9 0d f0 ba 52 c1 34 3d
       0.111169204 0.004205742 -0.0018314711 0.044129677
000130 25 3a 1b be 6b a9 f9 bb 48 7e d5 39 48 ac 86 3c
       -0.15158899 -0.007619073 0.00040720613 0.016439572
000140 02 ac 67 3d 7d 0f 83 bc 68 ca b3 bd 54 4d 48 bd
       0.056560524 -0.015998596 -0.0877884 -0.04890187
000150 7a 7a 02 bd ad 9f 8c bd 89 ee 33 bd 1c ca 32 3c
       -0.031855084 -0.06866393 -0.043928657 0.010912444
000160 8c 17 f3 3c a1 ee de bd 81 7d 97 3d cc 64 02 bd
       0.029674314 -0.108853586 0.07396985 -0.03183441
000170 8c 17 62 bc e9 f6 d0 bc 1e 70 b8 bc db 4a fb bd
       -0.013799559 -0.025508361 -0.0225144 -0.12270137
000180 da 69 f1 bb 6e 70 4a 3c 7b e9 c6 3c ab 34 fe bd
       -0.007367355 0.012355907 0.024281254 -0.12412389
000190 b9 61 26 bc 19 b6 fc 3c 24 e6 1f bc 20 d2 8e bc
       -0.010155135 0.03084855 -0.00975946 -0.01743418
0001a0 55 0b 22 bd 85 e0 ca bc b4 d4 88 bd 25 31 5e bd
       -0.03956159 -0.024765262 -0.06681195 -0.054246087
0001b0 a5 89 50 bd a7 a7 0c bd 08 91 be bc 55 e0 51 3d
       -0.050912518 -0.034339573 -0.023262516 0.05123933
0001c0 c4 69 c1 3c 4d 8c 1d bb 84 f7 84 3c 91 74 6d bd
       0.023610003 -0.0024039925 0.016231306 -0.057972495
0001d0 9b f3 a5 bd a7 30 f8 bc 74 4b 84 bd 2c 1a 7b 3d
       -0.08103105 -0.030296637 -0.06459704 0.061304256
0001e0 17 ad 14 bd 7a e4 a2 ba a2 cb 7f bb 73 8e 3a 3c
       -0.036297884 -0.001242771 -0.0039031287 0.011386502
0001f0 af b6 e8 bc 29 66 86 bd 73 d7 39 bd 78 06 53 3b
       -0.028407423 -0.06562454 -0.045371484 0.00321999
000200 8d 62 bb bd f9 b6 d6 bd 80 7e 00 bc be 98 3d 3d
       -0.091496564 -0.10484118 -0.00784266 0.046288244
000210 58 56 60 3d 52 ba fb bc f1 2c fb 3c 52 71 31 bc
       0.054769844 -0.030728493 0.030661078 -0.01083024
000220 73 29 d0 bc 55 ab df bd a6 41 0b 3d 98 d4 e7 3c
       -0.02541039 -0.10921351 0.033998154 0.028299615
000230 91 de 01 bc 11 e5 0b 3c c0 e4 58 bc a9 e5 86 3d
       -0.007926599 0.0085385 -0.013238132 0.06586773
000240 70 de 83 bb 80 3a 50 bb b0 ec b9 bd f0 58 ec bc
       -0.0040243194 -0.003177315 -0.09078348 -0.028851002
000250 2a e0 fd bd 9c ef ca bd 10 23 3d 3d 04 73 f7 3c
       -0.123962715 -0.09908983 0.046176016 0.03020621
000260 20 04 f1 3c 2e 41 93 bc c4 fd 74 3c b7 04 90 3c
       0.029420912 -0.017975416 0.014953081 0.017580373
000270 10 de 33 bd 76 7e 89 3d 5f 6b 75 bd 7f fb cb bd
       -0.043912947 0.06713574 -0.05991685 -0.099600784
000280 d7 97 2a bd a3 13 66 3c d9 0b d4 bd ce 6a 88 3d
       -0.041648712 0.014042768 -0.10353822 0.066609964
000290 34 ae f6 bc e5 30 39 bc aa ce bf 3c d5 d8 b9 bd
       -0.030112363 -0.011303161 0.023413975 -0.090745606
0002a0 d0 99 f6 3c 98 ac 12 3d 6b 37 0c bc fb 74 97 bd
       0.03010264 0.03580913 -0.008558135 -0.07395359
0002b0 3f 62 3d bc 7b 7e 23 bd 7d b9 8e bd 0b a8 42 3d
       -0.011559068 -0.039915543 -0.06968973 0.04752354
0002c0 37 45 5f bd 1b 4a 75 bd 06 c3 cf 3c 62 a3 25 bd
       -0.054509368 -0.059885126 0.02536155 -0.040439017
0002d0 50 9e 8a 3d 90 99 06 3c 66 60 04 3d 5f ba d9 bd
       0.06768477 0.008215323 0.032318495 -0.106312506
0002e0 39 97 7e 3d dd ad d9 bc 1d 65 0a bd b5 84 0d bd
       0.062155936 -0.026572162 -0.033787835 -0.034550387
0002f0 e9 ce 39 3c d2 0d 09 bd 1d 1a 03 bd 0d 25 97 bd
       0.011340835 -0.033460446 -0.032007325 -0.07380114
000300 37 52 f0 bc 39 6f 02 3d 6a b3 d6 bc 0d eb 0b be
       -0.029336078 0.03184435 -0.026208598 -0.13663884
000310 10 23 82 bd 9a 49 a5 bd 89 ea cd bc 3d 0b 47 3d
       -0.06354344 -0.08070679 -0.02513625 0.048594702
000320 ff a9 70 bd da a6 20 bc bd a0 b2 bc 90 44 d7 3b
       -0.05875587 -0.0098054055 -0.021805162 0.0065694526
000330 0c aa f9 bd 37 8f 8b bd 42 24 2c 3d cc 30 05 be
       -0.12190637 -0.068144254 0.042026766 -0.13006896
000340 06 d8 b6 3c 8f b4 ac bc a8 88 28 3d a1 d5 e2 3c
       0.022319805 -0.02108219 0.04114595 0.027689757
000350 de 4d 6d bd 9f 4a 0e bd 61 b6 9a 3d 74 dd 75 bc
       -0.057935588 -0.034739133 0.07554317 -0.015006412
000360 65 33 41 bb 60 9c c6 39 b2 76 54 3d 19 75 05 3a
       -0.0029480096 0.0003788201 0.05187101 0.0005090996
000370 8b 05 2d 3d d4 78 44 3d db 0e 34 3c b1 97 9d 3c
       0.042241614 0.047966793 0.01098987 0.019237371
000380 55 59 91 3d 17 89 ce bd 32 17 af 3d c1 43 28 bd
       0.07097117 -0.100847416 0.08549346 -0.04108024
000390 3f ac 8f bd a2 8c 57 bd d7 fc c7 bc 84 21 8a bc
       -0.07015275 -0.052624352 -0.024412556 -0.016861685
0003a0 db 34 17 bc 1a 27 96 3c 1a 6c 6d bc 92 63 2f 3c
       -0.00922891 0.018329192 -0.014491105 0.010704892
0003b0 65 d2 80 3d 3c b8 23 bd 3d 41 a9 3b 14 6b c8 3b
       0.062901296 -0.03997062 0.0051652477 0.0061162803
0003c0 33 64 3a 3c 6c 3a a3 bd ec e9 32 3c da af 1b 3b
       0.011376428 -0.079701275 0.010920029 0.0023755939
0003d0 b0 fa 2c bc 62 52 c6 bd 26 1c 18 bc ad a5 ad 3d
       -0.010557815 -0.09683682 -0.009284055 0.08478866
0003e0 79 ac c7 bd 9b 6e 3d 3d 28 b1 b7 3d 37 be e4 bd
       -0.097496934 0.04624806 0.08969337 -0.11169093
0003f0 6e a1 6b 3c 19 dc c7 bd 8b 74 6f bd 7e 42 0e 3d
       0.01438175 -0.09758777 -0.058460753 0.03473138

network.4.bias f4 [64]
000000 be 92 77 bd 06 d1 1b 3d 60 5f 2a 3c fc 83 93 3c
       -0.06044268 0.038041137 0.010398716 0.018007271
000010 00 b6 db b9 f2 6e 3f 3d 90 99 9a bc fc 56 b1 bd
       -0.00041906536 0.046736665 -0.018872052 -0.08659169
000020 69 d5 03 bd c0 48 91 3a ab 12 98 3d da f9 a7 bd
       -0.032185946 0.0011084303 0.07425436 -0.08201952
000030 f5 ed 9a bd 9c 17 9d 3c 12 51 9a bd 28 e6 10 bc
       -0.07564918 0.019176297 -0.07534994 -0.008843936
000040 5e 43 22 3d f6 04 4d 3d 78 c9 bf 3c 32 a3 4d 3d
       0.039615028 0.05005356 0.023411497 0.050204463
000050 88 88 51 bc 10 e0 3b 3c a6 18 35 bd d5 22 53 bd
       -0.012788899 0.011466995 -0.04421296 -0.05154689
000060 08 d3 b5 bc 31 e0 ad 3d 68 0c 35 3c 90 57 e8 3c
       -0.022195354 0.08490027 0.011050321 0.028362066
000070 dd a3 ad 3d f3 ff 85 3d 0a 4a 6b 3d bc e4 91 bc
       0.0847852 0.06542959 0.057443656 -0.017809264
000080 20 03 4c bb be 87 1b 3d 60 28 4e bb 59 cd 9d 3d
       -0.0031129792 0.03797125 -0.003145717 0.077051826
000090 6e ff 1c bd 98 fe 38 3c 16 a7 f7 bc 08 50 ec bc
       -0.038329534 0.011291169 -0.03023104 -0.028846756
0000a0 50 a0 55 3c 9f b2 22 bd 0e 59 49 3d e1 6c 84 3d
       0.01303871 -0.039721128 0.049157195 0.064660795
0000b0 a9 d7 a0 3d 30 40 4e 3c 7d 61 3e bd d8 9c e3 3c
       0.07853634 0.012588546 -0.04647969 0.02778475
0000c0 ec 07 8d bd 50 06 5e 3c 8a 2a ef bc a5 e9 97 bd
       -0.068862766 0.01355131 -0.029195089 -0.07417611
0000d0 61 fa a4 3d 43 16 87 bd 20 07 17 bb 79 cc 8e 3d
       0.080555685 -0.06596043 -0.0023045018 0.06972594
0000e0 e0 f2 37 3c 18 86 b2 bc 6c 9a fc 3c 40 14 cd 3a
       0.0112273395 -0.021792457 0.030835353 0.0015646294
0000f0 66 e8 58 bd 40 b5 9e 3c 28 cd 9f 3c fc 90 a6 bd
       -0.052956007 0.019373536 0.019507006 -0.08133122

network.5.weight f4 [64]
000000 0e 1a 7c 3f 69 2e 82 3f ac b7 83 3f 3d 12 80 3f
       0.98477256 1.0170413 1.0290427 1.0005566
000010 92 f5 74 3f a3 67 82 3f 69 00 78 3f 94 ac 80 3f
       0.9568721 1.0187877 0.96875626 1.0052667
000020 d0 1f 7f 3f 64 e2 7e 3f 11 17 83 3f a6 64 77 3f
       0.9965792 0.99564195 1.0241414 0.9663795
000030 73 3c 84 3f 80 41 82 3f 9c 72 7b 3f 13 62 80 3f
       1.0330948 1.0176239 0.98221755 1.002993
000040 ce 9f 7d 3f 5e a0 81 3f eb 67 7d 3f 48 08 81 3f
       0.9907197 1.0127065 0.9898669 1.0080652
000050 11 59 7b 3f ff e9 73 3f 91 2d 81 3f b5 7f 7e 3f
       0.9818278 0.95278925 1.0092031 0.99413615
000060 e2 6d 7f 3f e5 9d 7b 3f b3 ac 7d 3f 40 62 80 3f
       0.9977704 0.982878 0.99091643 1.0029984
000070 69 64 77 3f 07 43 7a 3f 91 23 79 3f f6 b9 81 3f
       0.9663759 0.97758526 0.97319895 1.0134876
000080 ee 48 82 3f 62 35 80 3f b5 cf 81 3f 37 57 78 3f
       1.0178506 1.0016291 1.0141512 0.9700808
000090 39 ec 7b 3f 80 14 7d 3f cc 48 7e 3f b3 4a 80 3f
       0.9840732 0.98859406 0.9932983 1.0022796
0000a0 70 4c 82 3f 7d af 7d 3f 9a dd 76 3f f3 09 80 3f
       1.0179577 0.990959 0.9643189 1.0003036
0000b0 9f 90 80 3f 46 85 84 3f 95 aa 78 3f 00 e3 81 3f
       1.0044135 1.0353172 0.9713529 1.01474
0000c0 2c 6b 75 3f a4 1d 7c 3f c8 ab 79 3f 3b 53 75 3f
       0.95866656 0.9848273 0.9752774 0.95830125
0000d0 60 8d 80 3f 79 ce 82 3f 0c 3b 7f 3f b6 bd 7b 3f
       1.0043144 1.021926 0.99699473 0.9833635
0000e0 e1 d5 7b 3f f6 65 7e 3f 89 07 82 3f 37 cb 80 3f
       0.9837323 0.9937433 1.015855 1.0062016
0000f0 3d 1a 7e 3f 72 ab 80 3f 9d 43 7d 3f db d9 7e 3f
       0.99258786 1.0052321 0.98931295 0.9955117

network.5.bias f4 [64]
000000 d5 2b 05 bd 17 bc b9 bd 0a 4b 78 bd 62 61 fc bd
       -0.032512505 -0.090690784 -0.060618438 -0.12323262
000010 a6 00 7b bd 83 da 37 bc 83 77 25 bd fd c5 cd bd
       -0.061279915 -0.011221531 -0.04039718 -0.10047529
000020 c5 c8 50 bd f7 c3 8b bc 1c a5 0d be 5c 8f 5e bd
       -0.05097272 -0.017061217 -0.13832515 -0.054335937
000030 25 f8 97 bd ba be ab bd f7 28 ed bd 8e d3 03 be
       -0.07420377 -0.083859876 -0.11580079 -0.1287367
000040 92 40 98 bd c0 f9 09 be 9d c2 4f be 93 7e ba bd
       -0.07434191 -0.13474178 -0.20289083 -0.09106173
000050 84 71 6d bd 6f c1 cc bd 93 65 39 be 42 86 8d bd
       -0.057969585 -0.09997832 -0.18105154 -0.06910373
000060 f1 a7 b7 bd ea 17 f3 bd 66 4a 85 bd 45 c1 45 be
       -0.08967579 -0.118697956 -0.06508331 -0.19312008
000070 11 96 58 bd db 67 90 bd f4 84 27 bd 86 ab 2f bc
       -0.05287749 -0.07051059 -0.04089828 -0.010722047
000080 3c e9 b0 bd c6 2a c0 bd e9 ec 8c bd 44 b4 21 be
       -0.08638236 -0.093831584 -0.068811245 -0.15791422
000090 e2 ec b1 bd 01 61 f3 bd d1 0a f0 bd 8e f3 c0 bd
       -0.0868776 -0.118837364 -0.11720813 -0.09421454
0000a0 d3 c5 83 bd 96 d6 00 be 8c 7b ad bd 0f b0 f2 bd
       -0.06434216 -0.12581858 -0.0847083 -0.11849987
0000b0 66 e3 0d bd 89 ef 00 be 21 ec 8b bd 13 fe 9f bd
       -0.034640692 -0.12591375 -0.068321474 -0.07812133
0000c0 72 80 d8 bd bb 2b 8c bd 7e 80 6a be 68 e0 85 bd
       -0.10571374 -0.068442784 -0.22900578 -0.06536943
0000d0 41 6e 48 bb d8 a4 40 bd 47 81 a2 3b 86 ea 55 bc
       -0.0030583295 -0.047032207 0.0049592587 -0.013056403
0000e0 8e 1f 88 bd b5 01 63 bd 76 f1 00 be 4e a0 ab bd
       -0.066466436 -0.05542155 -0.1259211 -0.08380185
0000f0 ea 93 d7 bd d6 3c de bd 1a 1c ff bd da b5 04 be
       -0.10526259 -0.10851447 -0.12456532 -0.12959996

network.5.running_mean f4 [64]
000000 45 e1 da be 85 9e ff be 45 18 02 be 9d ce 56 be
       -0.42749992 -0.49925628 -0.1270457 -0.20977254
000010 a0 76 16 bb 28 09 2e bd f9 47 8d be b2 58 ff be
       -0.002295889 -0.0424892 -0.27593973 -0.49872357
000020 75 0c 77 be da f6 9a be 72 31 9d be d3 f2 63 3d
       -0.24125846 -0.30266458 -0.30701786 0.055651497
000030 83 46 23 bf b8 67 34 3e b7 09 39 3e aa f1 59 be
       -0.6377947 0.1761769 0.18070112 -0.21283594
000040 2d ea 1d 3e 0e a8 bd be e7 5c 9d bd 95 3e 05 3e
       0.15421362 -0.37042278 -0.07683735 0.13012154
000050 2f 03 2c 3e a4 57 35 be 48 40 71 be f7 72 f0 bd
       0.1679809 -0.17709213 -0.23559678 -0.11740678
000060 27 fd c1 be ec 3c 41 3e ab 13 49 3e df 87 00 be
       -0.37888452 0.18870896 0.19636409 -0.1255183
000070 2f 34 85 bd b6 12 f9 3d 32 24 ac bb b1 ed 8e be
       -0.06504094 0.12161772 -0.0052533383 -0.2791572
000080 3e 43 93 be 04 4e 18 3e 8f 66 21 3d 35 65 f3 3e
       -0.2876224 0.1487351 0.039404448 0.47538152
000090 b3 94 80 bd df 96 77 3e af e1 b7 be 03 9b c2 be
       -0.06278362 0.24178647 -0.3591437 -0.3800889
0000a0 d3 a4 7a 3d dc 2c 86 3e 27 3a bb 3b 78 7c f1 bd
       0.061192345 0.262061 0.0057137194 -0.11791319
0000b0 c9 19 cb bd e4 6d e0 bd bb 4d 30 be f6 f9 23 be
       -0.099170275 -0.1095846 -0.17217152 -0.16013321
0000c0 a4 e6 55 be b9 3f 8d 3e 94 bc 90 be 0c 3c be bc
       -0.20888764 0.2758768 -0.28268874 -0.023221992
0000d0 5b 7b a6 3e 55 05 13 be 7c a3 43 3d 4b e4 92 3e
       0.32515988 -0.14357503 0.047763333 0.286898
0000e0 1b e0 86 be d6 33 39 3e dc 0b 1b bf 3d c1 35 3e
       -0.26342854 0.1808618 -0.6056497 0.17749496
0000f0 e8 3f 4d be 52 49 11 be 7f 97 78 bd df 41 d2 be
       -0.2004391 -0.14188126 -0.060691353 -0.4106588

network.5.running_var f4 [64]
000000 28 9f 85 3e cc 04 a9 3e 23 c7 9d 3e d9 d1 99 3e
       0.2609799 0.33011472 0.30815992 0.30042914
000010 d9 65 8f 3e d2 83 dd 3e 14 69 a0 3e 5c 4c 79 3e
       0.2800739 0.43264633 0.31330168 0.24345535
000020 4f a8 82 3e 6f 22 95 3e db f2 c4 3e 4d 63 84 3e
       0.25519034 0.29127833 0.38466534 0.2585701
000030 8a 87 b9 3e 67 6b 99 3e 21 18 97 3e 86 7e 83 3e
       0.3623622 0.29964754 0.29510596 0.25682467
000040 fe 0b 54 3e 5b 7e b4 3e 9d 9c 83 3e 2b 4e a8 3e
       0.207077 0.35252652 0.25705424 0.32872137
000050 d2 e2 7a 3e 69 b9 69 3e b0 50 b7 3e a0 c0 93 3e
       0.24500588 0.22824635 0.35803747 0.288579
000060 83 d4 98 3e da 82 97 3e e4 a5 95 3e 6a 96 79 3e
       0.29849634 0.2959202 0.29228127 0.24373785
000070 f6 ee 8a 3e 73 47 88 3e 82 48 8e 3e 0e b4 83 3e
       0.27135438 0.2661701 0.27789694 0.25723308
000080 79 3a 9c 3e 8d 30 a9 3e aa 51 96 3e 18 b3 57 3e
       0.3051336 0.33044854 0.2935918 0.21064413
000090 94 75 9b 3e 97 9c a4 3e 14 8d 8f 3e c0 30 b4 3e
       0.30363142 0.3215072 0.28037322 0.35193443
0000a0 8b 75 93 3e f8 04 87 3e a8 70 88 3e 3a e6 98 3e
       0.28800616 0.26370978 0.2664845 0.2986315
0000b0 3a 20 c8 3e a1 88 a5 3e 3c 96 b3 3e 0c 2f a4 3e
       0.39087087 0.32330802 0.35075557 0.32067144
0000c0 43 ef a9 3e 48 51 8d 3e 3f b9 77 3e 05 ab b2 3e
       0.33190355 0.27601075 0.2419176 0.34896103
0000d0 76 86 bf 3e cf d8 96 3e f9 f4 74 3e ad 07 74 3e
       0.37407273 0.29462287 0.23921575 0.23831053
0000e0 0e 87 bf 3e 1c e7 97 3e b9 6c 9f 3e 9c 4b 93 3e
       0.37407726 0.2966851 0.31137636 0.28768623
0000f0 87 fa af 3e 70 6f 7c 3e 71 9c c5 3e 51 b0 87 3e
       0.34370825 0.24651885 0.38595918 0.26501706

network.8.weight f4 [32, 64]
000000 ff 72 d1 3d 09 07 81 3d 0f 61 11 3d af 30 6e 3d
       0.10227012 0.0630017 0.035492953 0.058151897
000010 0e 0f 26 bd eb b9 af bd 74 9b d6 bd e6 35 27 3d
       -0.0405417 -0.08580383 -0.10478869 0.040822886
000020 0c e9 07 3d 3f cb a1 bc 23 0f cd bd 97 11 8b bd
       0.033181235 -0.019750236 -0.10012653 -0.06790464
000030 85 b4 90 3c 9b 76 10 bd 74 7b 3b bd 57 aa f4 3c
       0.017664203 -0.03526936 -0.04577203 0.02986638
000040 04 67 06 bd 2f c3 c2 3c 91 98 94 bb 21 a6 2c 3e
       -0.032813087 0.023774711 -0.004534789 0.16860248
000050 95 9d 81 bb 1c d7 56 3e c4 d4 f8 bd 06 9d 13 3d
       -0.003955553 0.20980495 -0.12149957 0.03603842
000060 53 b2 af bd 74 f7 e3 3c 07 0e 88 bd d7 66 55 3d
       -0.085789345 0.027827956 -0.066433005 0.05210003
000070 46 f7 fc bd 2b b6 14 3d a2 bd 95 bd fd e8 2b bd
       -0.12351851 0.03630654 -0.0731156 -0.04197024
000080 32 19 b6 bc 02 d0 20 bd d5 2b a9 3d a8 4a ab 3c
       -0.022228811 -0.03926087 0.082603134 0.020909622
000090 82 a5 1d bd 09 b5 e4 3d 8d 72 cd bd 03 a1 f0 3d
       -0.03848792 0.11167342 -0.100316145 0.117494605
0000a0 8d 69 06 bd c9 ec b3 3c 14 dd f5 3b ba bb 5b bd
       -0.032815505 0.021963494 0.007503161 -0.053645827
0000b0 26 df b6 bd 10 e9 02 bd 3d 2b e9 bd b3 23 c9 bc
       -0.08929281 -0.031960547 -0.113852 -0.024553156
0000c0 da 85 c7 bd b0 44 93 bd 92 50 ce bd 2d d9 18 bc
       -0.09742327 -0.071908355 -0.10073961 -0.0093291225
0000d0 3d 1f 94 bd 67 4c c8 bd 86 ec 10 3c 78 9c f7 ba
       -0.07232521 -0.097801976 0.008845454 -0.0018891236
0000e0 6d f0 bd 3d e6 91 12 be 94 ed 9f 3c 12 bd 4b 3e
       0.09274373 -0.14313468 0.019522466 0.19896343
0000f0 43 c3 97 bd eb f1 62 3c 0d 51 ea bd db bf 83 3c
       -0.0741029 0.013851623 -0.114412405 0.016082695
000100 7c 95 b6 bc 3a fb 72 3d 09 8d 19 3d 51 a4 09 3c
       -0.022288077 0.05932162 0.037488017 0.0084009925
000110 3e fa 70 bd 7f 4d 5f bd 4c 03 99 3d 80 31 0f 3c
       -0.0588324 -0.054517265 0.07471332 0.008739829
000120 ed 7e d7 bb 38 f0 01 3d f5 da 1f 3d fc f3 38 bd
       -0.00657641 0.03172323 0.039027173 -0.045154557
000130 9c 99 23 3d 60 4f 63 3d 1a ff 55 bd 3f 51 d3 3d
       0.039941415 0.05549562 -0.052245237 0.10318231
000140 16 57 17 3e c8 e4 a7 bd 74 2a a5 bd 77 ce 52 3d
       0.14779314 -0.081979334 -0.08064738 0.05146643
000150 bc 4b 91 bc 16 97 b5 bc ed 8d 0f 3c cc 3a 72 3c
       -0.017736308 -0.02216677 0.008761865 0.014784526
000160 0c 91 6c bd 03 31 fa bc 2d 34 3f 3d 5b 02 17 3e
       -0.057755515 -0.030540949 0.046680618 0.14746992
000170 14 14 32 3d 67 c3 7a 3c 65 37 1a bd 67 eb a5 bd
       0.04347618 0.015305377 -0.037650485 -0.0810154
000180 8b 22 93 bd e3 af a1 3d b0 08 aa 3d 28 cc 10 3e
       -0.07184323 0.07894876 0.08302438 0.1414038
000190 15 af 8d bd 08 86 4d 3d 87 90 af bd a0 d3 25 bd
       -0.0691816 0.05017665 -0.08572488 -0.040485024
0001a0 28 2a 7d bd 53 a0 0a 3e 96 91 20 3d 34 19 76 bd
       -0.06180778 0.13537721 0.03920134 -0.06008263
0001b0 cd 54 13 bc 90 98 ce 3d 93 92 28 3d 46 04 35 3d
       -0.008992386 0.10087693 0.04115541 0.04419353
0001c0 fb 27 97 bd 4b 37 67 3d 81 75 78 bc b0 87 5d 3c
       -0.073806725 0.056449216 -0.015164734 0.01352112
0001d0 ae f2 bb 3b 0d d7 d2 bd 92 5d 5a 3d c0 82 b9 bd
       0.005735717 -0.10294924 0.05331189 -0.09058142
0001e0 2a b1 4a bd d7 a9 26 bc 6c 97 e7 3a 63 1f 8f bc
       -0.049485363 -0.010172329 0.0017669029 -0.017471021
0001f0 4b ea ae bd 0f 9d 79 3c e2 a6 1a 3c 18 c4 0e 3e
       -0.085407816 0.0152352 0.009439202 0.13941991
000200 21 5b 5a bc f1 20 d6 3d c3 3b 8a bc 3c ee 83 bd
       -0.013327391 0.10455502 -0.0168742 -0.06441924
000210 8c 95 17 bd 13 ce 67 3d db b8 2e 3d d6 51 ce bd
       -0.037007853 0.056593012 0.04265676 -0.10074203
000220 76 a8 51 3c 9e 74 8c 3c 58 20 dc 3d cb 8a 33 bd
       0.012796512 0.017145451 0.107483566 -0.043833535
000230 10 1b 0b bd c6 64 3d 3d 15 8e cc 3c 1e 3a b1 bd
       -0.033961356 0.046238683 0.024970094 -0.08653663
000240 c7 ce 8f 3d a3 8a e2 3d 26 ba 08 3c 56 ea f2 bd
       0.070218615 0.11061599 0.0083451625 -0.11861102
000250 3d 89 3d bc 1b 7c 3e 3d 20 49 e1 3d 55 54 c3 3b
       -0.011568365 0.046505075 0.110002756 0.005960981
000260 78 45 7f 3b 90 7a cd bd a3 c0 c7 bd db da 81 3d
       0.0038951319 -0.100331426 -0.097535394 0.063405715
000270 09 98 90 3d 15 36 bc bd c9 69 e5 bd bc e0 e8 3d
       0.070602484 -0.09190003 -0.112018175 0.1137099
000280 1a be 63 3d 9e 70 96 bd 66 81 9c bc e3 b0 8d bd
       0.055601217 -0.07345699 -0.01910467 -0.06918504
000290 e1 fe 1a 3d e0 b3 b0 bd 85 51 72 3d ef d8 14 be
       0.037840728 -0.086280584 0.059159774 -0.14535879
0002a0 2d ba fd 3c b7 6e e7 bc b2 ee 50 bd 03 15 c7 3c
       0.030972565 -0.028251035 -0.051008888 0.024302011
0002b0 86 2c d3 3d 96 46 cc bd 5f 17 20 bd 3f ef 4d bc
       0.103112265 -0.09974401 -0.03908479 -0.012569248
0002c0 8b c0 c5 bc ef 1d 43 3d 65 c2 d6 3d 5b 58 f0 bc
       -0.024139663 0.04763597 0.104862966 -0.029339006
0002d0 d2 90 96 3c e2 49 f4 3d 01 90 d9 bd 1f b7 a9 bd
       0.018379603 0.119281545 -0.1062317 -0.08286881
0002e0 12 ba 89 3d 9a 89 58 3d e5 28 02 be db 6b f1 bd
       0.06724943 0.052865602 -0.12710913 -0.1178815
0002f0 84 12 55 3d 4f db 2b 3d f4 5e 5e 3d 36 ae ef 3d
       0.05201961 0.041957196 0.054289773 0.1170315
000300 d4 cb c8 bb 65 c8 a5 bd fc 35 a0 bd 2f ae 8d 3c
       -0.006127814 -0.08094863 -0.07822797 0.017294971
000310 d0 d0 a0 bc b0 63 08 be 5d c7 e7 bd ad 33 f8 bc
       -0.01963082 -0.13319278 -0.113173224 -0.030298078
000320 57 02 05 3c a6 15 9b bc bf 20 da bd 34 76 c8 bc
       0.008118234 -0.018931221 -0.10650777 -0.024470426
000330 61 45 c3 bc 03 9b d9 bb a4 99 1d bd b7 9b ae bc
       -0.023836793 -0.0066407933 -0.0384766 -0.021314485
000340 ad d7 d3 bd 8d 9a 79 3d a8 91 ce 3d d8 33 1b 3e
       -0.10343871 0.060938407 0.100863755 0.15156496
000350 2f d4 b2 bb 08 71 34 bc f3 71 ab bd e5 2a 34 bd
       -0.005457423 -0.011013277 -0.083713435 -0.04398622
000360 8c 5b 14 3d e2 c7 18 3e a9 5e 83 3d 0d 7f b9 bd
       0.03622012 0.14919999 0.06414539 -0.09057436
000370 77 13 05 be 58 2a b7 3d a5 a7 c8 bb d7 96 12 3e
       -0.12995706 0.08943623 -0.0061235004 0.14315353
000380 ab cc 6c 3d 75 db fd bc 2b 42 ab bd 01 53 5f bd
       0.057812374 -0.030988434 -0.0836223 -0.054522518
000390 1a ca 99 3c b2 51 3a 3b b5 de 00 3d 6a 85 82 bd
       0.018773127 0.0028430042 0.03146239 -0.06373103
0003a0 2f a4 01 3d 86 3b bc bc f0 6f 99 3b fb ef 7e 3a
       0.03165072 -0.022977602 0.0046825334 0.0009725091
0003b0 d9 d9 21 3d 08 13 1e 3d b5 99 09 bd bb bd f4 bd
       0.039514396 0.03859237 -0.033593852 -0.11950251
0003c0 c2 a3 43 37 dd 92 cb 3c 0e 67 72 bc 75 ce d0 3d
       1.1661034e-05 0.024850303 -0.014795078 0.101956286
0003d0 a0 a9 2c bd 0e 8a 71 3d e8 7f e3 bc 1b 83 22 3e
       -0.042153955 0.05896955 -0.027770951 0.15870325
0003e0 0c 66 9f bd 1d 63 ce 3b 44 02 f3 bd 3a 63 99 3d
       -0.07783136 0.0062984363 -0.118656665 0.07489629
0003f0 f8 41 ad bd 5c 83 01 3d 78 92 fa 3d 4b 85 51 bd
       -0.08459848 0.031619415 0.12234968 -0.05115251

network.8.bias f4 [32]
000000 82 73 9f bd 24 9e 82 bd 56 7f d8 bd 76 a8 bd 3d
       -0.07785703 -0.06377819 -0.105711624 0.09260647
000010 50 7f 79 bd 18 df b7 bd 78 76 aa bc 80 55 ee bc
       -0.06091243 -0.08978099 -0.020808443 -0.029093504
000020 8c 40 b6 bd 22 ff 93 bd 04 af 0a bd b4 4f 23 3d
       -0.0889903 -0.07226397 -0.033858314 0.039870933
000030 a4 54 b8 bd d8 3e d7 bc 7c 7d 4c 3d 4e 26 92 3d
       -0.09000519 -0.026275083 0.04992436 0.07136212
000040 d2 9e e4 3d 8a 2e bc 3d 44 54 73 3d b8 61 a9 3c
       0.11163105 0.09188564 0.059406534 0.020676479
000050 98 26 b2 bd 90 f5 3e bd 7e d6 e7 bd 80 21 cb 3c
       -0.086987674 -0.046620905 -0.11320208 0.024796247
000060 e8 3c 95 bd 18 5d 2e 3d 78 11 fb 3c 6c 00 37 bd
       -0.072870076 0.04256925 0.030647978 -0.044678137
000070 9c dd 7d 3d 84 b2 84 bd 68 e8 dc bc 60 f4 8b 3d
       0.06197892 -0.06479362 -0.026966289 0.0683372

network.9.weight f4 [32]
000000 05 91 bd 3f 13 da af 3f d5 3d bd 3f d2 ab b4 3f
       1.4809881 1.3738426 1.4784495 1.4114935
000010 2a a5 c1 3f e3 aa b8 3f 53 e1 ba 3f 44 32 c2 3f
       1.5128529 1.442715 1.4600013 1.517159
000020 c5 d2 b8 3f 14 26 b9 3f 7d aa c0 3f 88 bf b6 3f
       1.4439322 1.4464746 1.5052029 1.4277201
000030 9c 2d b7 3f 53 9d b9 3f 74 c2 b4 3f 19 a3 ba 3f
       1.4310794 1.4501137 1.4121842 1.4581023
000040 dc b5 c2 3f 49 ac c2 3f 00 49 ac 3f 7b b0 b6 3f
       1.5211749 1.5208827 1.3459778 1.4272608
000050 4c 17 c2 3f 4a de b6 3f fe e8 be 3f db 2d aa 3f
       1.516336 1.4286587 1.4914854 1.3295244
000060 0d 7d b4 3f 9e 79 ae 3f f9 e2 be 3f ed e8 ad 3f
       1.4100662 1.3630865 1.4913017 1.3586708
000070 04 d7 b4 3f e6 3e ab 3f 28 71 b6 3f e6 ab b4 3f
       1.4128118 1.337857 1.4253283 1.4114959

network.9.bias f4 [32]
000000 a2 1d 6f 3e 6b da 34 3e bb 6d 90 3e c2 78 3b 3e
       0.23351148 0.17661445 0.28208718 0.18307784
000010 3c 7c 49 3e 0b 0d 3e 3e 21 8b 53 3e 3f 0f 8f 3e
       0.19676298 0.18559663 0.20658542 0.2794132
000020 8a 6c 9f 3e b6 23 55 3e e6 cb 4a 3e ac 20 82 3d
       0.31137496 0.20814404 0.19804344 0.06353888
000030 d1 be 41 3e 87 96 98 3e 49 85 12 3e 55 2b e7 3d
       0.18920447 0.29802343 0.14308657 0.11287562
000040 39 c8 41 3e 5d 29 74 3e 2b fc 6e 3e a3 3c 81 3e
       0.18924035 0.23843904 0.23338382 0.25241575
000050 52 63 8e 3e b1 47 75 3e a5 ba 68 3e c7 51 06 3e
       0.2781015 0.2395313 0.22727449 0.13117133
000060 18 8d aa 3d 0c bb 6c 3e 43 52 7f 3d 23 0d 27 3e
       0.08327693 0.23118228 0.06233431 0.16313605
000070 d9 b7 28 3e a5 11 65 3e 2f 85 5a 3e a3 fb 3b 3e
       0.16476382 0.22370012 0.21339868 0.1835771
