MNIST classification with MLP optimized with Optuna/optimized_model.pt (torch, 732038 bytes, 20 tensors)

network.0.weight f4 [196, 784]
-0.024077863 0.034630332 0.015812404 -0.016883558 -0.017527401 -0.0007562153 -0.020760775 0.026488349
-0.013641745 -0.007126186 -0.006092068 0.005443249 0.07349995 -0.03307078 -0.044201285 -0.033714253
0.028087582 -0.03412737 0.0057086647 0.001835499 -0.027994456 -0.021054622 0.00068575144 -0.020063082
0.008352753 -0.033695027 -0.013664447 0.006335322 -0.0029697232 -0.010471843 0.019442547 0.024156108
0.030020373 0.032016937 -0.0560666 0.020935113 0.078015395 0.0057397475 -0.056725215 -0.09975403
-0.065432414 -0.06882999 -0.031319585 -0.14246565 0.06644878 -0.080740176 -0.11206263 -0.060266964
-0.12587203 -0.050211906 -0.032118425 -0.038057692 0.014014907 -0.031444922 -0.012266092 -0.020795137
0.0064322613 0.031815823 0.045144964 -0.05425093 -0.00092204846 -0.024803134 0.061986454 0.07708817
0.11434026 0.0671489 -0.06799113 -0.08323951 0.100866795 0.100229576 0.007423631 -0.0972846
-0.021539776 0.0023885216 -0.029090993 -0.15963872 -0.07141309 -0.035042882 -0.048276287 0.0649315
0.045618664 0.087640524 -0.03462191 -0.030561402 0.025591765 0.023085136 0.03619163 -0.07221666
-0.025678242 -0.043651953 0.026203537 -0.02379406 -0.040234935 -0.05800869 -0.04420943 -0.029301384
-0.013217418 -0.06786833 -0.008407868 0.0027492666 -0.082284436 -0.017900659 0.0537896 0.082138605
-0.033317972 0.0008051855 0.014718695 -0.08707847 -0.050677128 -0.015368376 -0.07143427 -0.01752804
0.035704177 0.021448318 0.006946535 0.10548263 -0.009697031 0.07241309 0.03733971 -0.04470498
-0.06896422 -0.0028980086 -0.04717112 -0.08922385 -0.019639367 -0.060398936 0.004798645 0.037928514
-0.0074083004 -0.018152358 -0.053268448 -0.042878494 -0.0059513687 -0.026457768 0.035020545 -0.02614304
-0.018508434 0.0010714156 -0.038014688 -0.1323426 0.0028187335 0.00923903 -0.048014496 0.06169791
-0.07393183 -0.019181672 -0.097776316 -0.007481951 0.02879502 0.049706105 0.0037580107 -0.04486866
-0.042306397 0.03860711 0.0038215849 -0.06043983 -0.02318588 0.018274428 -0.02496976 -0.064952165
-0.043093268 -0.032875337 -0.021787336 0.040464155 0.0016631905 -0.08606957 -0.07815825 -0.043107484
0.005474087 0.021800706 -0.01609337 0.0635757 0.015167375 -0.03681039 0.0074301697 -0.03199081
-0.0130357435 0.044495065 0.07957836 0.052826416 0.06779802 0.049276207 0.008733744 -0.03459075
0.009953839 0.04911267 -0.00342323 0.038017128 -0.101735316 0.00792744 -0.036598857 -0.0082735
0.14235625 0.027155394 0.07910511 0.019214777 0.085797966 0.071928956 0.0611751 0.18928249
-0.009485634 -0.011529712 -0.03222459 0.0073977243 0.00278591 0.07548133 0.03454267 -0.0057993447
0.017481107 0.027906574 -0.027712898 -0.046007264 0.023583079 0.024415143 -0.0770972 0.021433556
0.02191683 0.07950818 0.008752227 -0.08770281 0.08027964 -0.1406647 0.004484238 -0.080154926
-0.081298634 0.07334108 0.03498496 -0.02417623 0.031536378 0.039772365 -0.06527673 -0.048059855
-0.028544186 0.029003294 0.043767028 0.043335266 -0.017774377 -0.077658124 0.049455386 0.0843973
-0.013676849 -0.053389076 -0.038515024 0.03353759 -0.009212759 0.046989612 0.06000572 0.025051875
0.07675712 -0.028643552 0.052775554 0.02050661 -0.0033254079 -0.014981681 -0.037273083 -0.040676203
00000000: f03e c5bc 89d8 0d3d 0489 813c 634f 8abc
00000010: a095 8fbc c03c 46ba 8012 aabc 18fe d83c
00000020: a081 5fbc c882 e9bb f89f c7bb 485d b23b
00000030: 2487 963d 3a75 07bd 680c 35bd f517 0abd
00000040: ee17 e63c 24c9 0bbd c00f bb3b 2095 f03a
00000050: a154 e5bc be7a acbc 00c4 333a 555b a4bc
00000060: fcd9 083c cc03 0abd d8e0 5fbc 8898 cf3b
00000070: b09f 42bb 1892 2bbc fa45 9f3c 08e3 c53c
00000080: 49ed f53c 3124 033d 17a6 65bd 1d80 ab3c
00000090: 89c6 9f3d 7e14 bc3b b358 68bd d74b ccbd
000000a0: 6e01 86bd bdf6 8cbd f748 00bd 84e2 11be
000000b0: 4c16 883d 1b5b a5bd 1881 e5bd 7eda 76bd
000000c0: 99e4 00be 00ab 4dbd 9c8e 03bd 62e2 1bbd
000000d0: c89e 653c 64cc 00bd b8f7 48bc 905a aabc
000000e0: b8c5 d23b 4f51 023d ede9 383d 3936 5ebd
000000f0: a0b5 71ba f12f cbbc 82e5 7d3d 67e0 9d3d
00000100: 3a2b ea3d 5d85 893d ef3e 8bbd 7a79 aabd
00000110: 4093 ce3d 2a45 cd3d ee41 f33b 263d c7bd
00000120: 2f74 b0bc be88 1c3b 3c50 eebc 5578 23be
00000130: 0741 92bd 2089 0fbd 5bbd 45bd cefa 843d
00000140: a3da 3a3d e07c b33d b4cf 0dbd e85b fabc
00000150: d2a5 d13c 0a1d bd3c ad3d 143d 54e6 93bd
00000160: 2d5b d2bc 64cc 32bd cda8 d63c c3eb c2bc
00000170: 63cd 24bd 859a 6dbd f314 35bd 7509 f0bc
00000180: df8d 58bc 8dfe 8abd 28c1 09bc 0a2d 343b
00000190: be84 a8bd 67a4 92bc 7c52 5c3d 4938 a83d
000001a0: 6d78 08bd 1613 533a ae26 713c 3256 b2bd
000001b0: d292 4fbd a4cb 7bbc 214c 92bd f796 8fbc
000001c0: 8b3e 123d 62b4 af3c c29f e33b 4707 d83d
000001d0: 4ce0 1ebc 504d 943d 86f1 183d 921c 37bd
000001e0: 1d3d 8dbd 84ec 3dbb 8136 41bd feba b6bd
000001f0: bde2 a0bc e064 77bd f43d 9d3b ee5a 1b3d
00000200: 54c1 f2bb 41b4 94bc 0430 5abd 5ca1 2fbd
00000210: b303 c3bb f6bd d8bc b471 0f3d ee29 d6bc
00000220: 009f 97bc be6e 8c3a 4ab5 1bbd d284 07be
00000230: 80ba 383b 4d5f 173c d9aa 44bd f3b6 7c3d
00000240: 9269 97bd e222 9dbc f33e c8bd 272b f5bb
00000250: 89e3 eb3c a198 4b3d f548 763b 33c8 37bd
00000260: 7949 2dbd 7d22 1e3d 8e73 7a3b c18f 77bd
00000270: 51f0 bdbc 41b4 953c 628d ccbc a405 85bd
00000280: 9182 30bd 4aa8 06bd 5b7b b2bc bebd 253d
00000290: 6aff d93a 3e45 b0bd 6f11 a0bd 7991 30bd
000002a0: f85f b33b 6597 b23c 3ed6 83bc fa33 823d
000002b0: 9580 783c 7ec6 16bd c878 f33b cc08 03bd
000002c0: df93 55bc 7540 363d fbf9 a23d 8360 583d
000002d0: b0d9 8a3d d9d5 493d fa17 0f3c 08af 0dbd
000002e0: 6d15 233c 5e2a 493d 4558 60bb d9b7 1b3d
000002f0: 9b5a d0bd 18e2 013c afe8 15bd 938d 07bc
00000300: d6c5 113e fd74 de3c dc01 a23d 4f68 9d3c
00000310: d8b6 af3d 7d4f 933d be92 7a3d 45d3 413e
00000320: a269 1bbc 1ee7 3cbc effd 03bd 9c68 f23b
00000330: d093 363b f595 9a3d 9d7c 0d3d 6e08 bebb
00000340: 8a34 8f3c 549c e43c 2906 e3bc 1d72 3cbd
00000350: 4d31 c13c 4402 c83c 23e5 9dbd 6d95 af3c
00000360: ed8a b33c 2fd5 a23d 8065 0f3c 889d b3bd
00000370: a769 a43d 680a 10be 84f0 923b 4428 a4bd
00000380: e67f a6bd d933 963d 644c 0f3d 3b0d c6bc
00000390: 4a2c 013d 59e8 223d ceaf 85bd 69da 44bd
000003a0: 7fd5 e9bc 5198 ed3c 0e45 333d 5280 313d
000003b0: 929b 91bc 390b 9fbd bb91 4a3d 7ed8 ac3d
000003c0: dd14 60bc 81ae 5abd eec1 1dbd b65e 093d
000003d0: 1df1 16bc 2e78 403d 8fc8 753d 9739 cd3c
000003e0: d632 9d3d e2a5 eabc 2e2b 583d 7afd a73c
000003f0: 16ef 59bb b975 75bc a9ab 18bd 179c 26bd

network.0.bias f4 [196]
-0.003641507 0.0057690544 0.0016809064 -0.012853365 0.024667742 0.003935098 -0.02996353 0.030149097
-0.024740938 0.02033893 0.013032022 0.0014634271 0.027584918 0.013794008 0.0012649272 0.0059396285
-0.0115064 -0.035406187 -0.020547839 0.022979338 0.013361194 -0.03635449 -0.028859265 -0.011590638
-0.029370282 -0.018857466 -0.008844843 -0.026898315 0.0320496 -0.023060584 0.0011426765 -0.025811715
0.029272601 -0.033774875 -0.013590639 0.035879254 0.006397841 -0.008477917 0.017324949 -0.02326117
0.018585807 0.0025739851 -0.0054185856 -0.019039743 -0.029899832 0.019052392 -0.029892147 -0.023164768
0.026115945 -0.030765606 -0.004673285 0.014137509 0.017161569 0.021551322 -0.031028297 -0.009126236
-0.028486697 -0.024713155 0.017623458 0.008430742 -0.025360286 0.041040637 -0.0008155179 -0.0046021
-0.020412201 -0.04453064 -0.005564825 0.021627428 -1.4519643e-05 0.029810727 -0.016429216 0.024587361
0.03468446 -0.011506633 -0.033001296 0.014142853 0.041585166 0.03629348 0.0048254863 0.004660188
0.023660582 -0.0033012638 -0.032025635 -0.010160634 0.01412691 0.02338357 0.0005423511 0.019971566
-0.0048696 0.018349608 -0.010641124 0.006577293 0.014551966 -0.011849556 0.040728457 -0.021796737
-0.026448483 -0.008250677 0.0043149944 -0.030244287 0.034489833 0.016501859 -0.016316751 0.00867686
0.016677858 0.020716019 -0.016652076 -0.023065321 0.030906774 -0.036882807 0.032000147 0.01850527
-0.01687444 0.010551422 -0.032839723 0.0404952 -0.0010997351 0.023460496 0.031143274 -0.026332691
-0.020068211 -0.009998716 -0.043995578 -0.010628502 0.015304604 -0.0074925125 0.017982546 0.0049897693
-0.015311505 0.0248006 -0.025082745 -0.028357001 -0.0189838 0.011933404 0.011435585 0.005705054
0.014856901 -0.027678704 -0.028299458 0.02815101 0.015106515 0.025795367 -0.023389654 0.018518629
0.007611947 0.0043802266 -0.035076786 0.0010568632 0.025833875 0.012815559 -0.018326236 0.029864274
0.024181228 0.019634265 -0.010443393 0.026576482 0.0005511179 -0.015904475 -0.01495097 -0.023234893
-0.009408434 0.009542965 0.028721621 -0.021341031 -0.02028139 -0.029381251 0.018790746 -0.0061194682
0.0100380005 0.033375397 -0.033538535 0.035907004 -0.019701976 -0.025605774 0.0040791943 0.025263622
-0.0053475657 0.027930295 0.041455805 0.0062325476 0.0024240105 0.0060783774 -0.011900239 5.5452914e-05
0.02290741 0.009843602 0.0067125326 0.012061381 0.030535493 -0.020978529 0.015635 0.0019372158
-0.007970483 0.016213737 0.013371499 0.033821054
00000000: 59a6 6ebb 560a bd3b dc51 dc3a ec96 52bc
00000010: 0114 ca3c fff1 803b 1476 f5bc 3dfb f63c
00000020: 82ad cabc d49d a63c 4384 553c 77d0 bf3a
00000030: c4f9 e13c 4300 623c eacb a53a 37a1 c23b
00000040: 5785 3cbc 1406 11bd f153 a8bc 2a3f bc3c
00000050: e9e8 5a3c 72e8 14bd 446a ecbc a9e6 3dbc
00000060: f299 f0bc f97a 9abc f6e9 10bc db59 dcbc
00000070: 7146 033d 8de9 bcbc dcc5 953a 1773 d3bc
00000080: 18cd ef3c 8657 0abd 46ab 5ebc 20f6 123d
00000090: fba4 d13b f6e6 0abc 0ded 8d3c 368e bebc
000000a0: 4341 983c 4eb0 283b 648e b1bb 3cf9 9bbc
000000b0: 7ef0 f4bc c313 9c3c 60e0 f4bc 0ac4 bdbc
000000c0: 1bf1 d53c 2708 fcbc 5b22 99bb 03a1 673c
000000d0: 6b96 8c3c 668c b03c 0e2f febc 3586 15bc
000000e0: ef5c e9bc 3e73 cabc 125f 903c 1821 0a3c
000000f0: 60c0 cfbc 3a1a 283d 7bc8 55ba 36cd 96bb
00000100: 7d37 a7bc c365 36bd 2359 b6bb 012c b13c
00000110: 6499 73b7 a035 f43c 9096 86bc 6f6b c93c
00000120: 4b11 0e3d 5186 3cbc 5e2c 07bd 6db7 673c
00000130: 3555 2a3d 79a8 143d 1d1f 9e3b 7eb4 983b
00000140: d6d3 c13c 045a 58bb 502d 03bd ca78 26bc
00000150: 8e74 673c e78e bf3c 912c 0e3a 699b a33c
00000160: 2a91 9fbb eb51 963c 1c58 2ebc 5586 d73b
00000170: 5f6b 6e3c a424 42bc e2d2 263d 128f b2bc
00000180: 7daa d8bc d92d 07bc cc64 8d3b dec2 f7bc
00000190: 3645 0d3d e82e 873c b5aa 85bc 6329 0e3c
000001a0: 01a0 883c a4b4 a93c ef69 88bc 7cf3 bcbc
000001b0: 3430 fd3c 6d12 17bd 9612 033d 5d98 973c
000001c0: 443c 8abc dfdf 2c3c f282 06bd 4bde 253d
000001d0: fd24 90ba 3a30 c03c 2e20 ff3c a8b7 d7bc
000001e0: 1766 a4bc a8d1 23bc b534 34bd 2b23 2ebc
000001f0: 29c0 7a3c c083 f5bb 2250 933c 3881 a33b
00000200: 1bdd 7abc a12a cb3c 547a cdbc f14c e8bc
00000210: ea83 9bbc 5384 433c 525c 3b3c 76f1 ba3b
00000220: 5c6a 733c 73be e2bc 44d4 e7bc f29c e63c
00000230: 5181 773c ce50 d33c a99b bfbc 61b4 973c
00000240: a46d f93b 0188 8f3b adac 0fbd 7286 8a3a
00000250: 90a1 d33c 5af8 513c e720 96bc eca5 f43c
00000260: b617 c63c 0ad8 a03c c41a 2bbc ecb6 d93c
00000270: e578 103a 1a4a 82bc eaf4 74bc 1a57 bebc
00000280: d525 1abc 195a 1c3c 9b49 eb3c 63d3 aebc
00000290: 2825 a6bc f3b0 f0bc 0def 993c d285 c8bb
000002a0: 6d76 243c a4b4 083d b45f 09bd 3913 133d
000002b0: 0a66 a1bc 33c3 d1bc c3aa 853b a8f5 ce3c
000002c0: a23a afbb 13ce e43c 90cd 293d 663a cc3b
000002d0: 26dc 1e3b 202d c73b 38f9 42bc 1d96 6838
000002e0: 52a8 bb3c 0f47 213c cef4 db3b 199d 453c
000002f0: 9225 fa3c 2adb abbc f914 803c 2dea fd3a
00000300: a196 02bc acd2 843c 2214 5b3c f287 0a3d

network.1.weight f4 [196]
0.8978949 0.8937111 0.8706595 0.8413021 1.0105777 0.9315922 0.92156243 0.89662623
0.97118753 0.986874 0.81671304 0.8524513 0.83588964 0.84975195 0.901346 0.9011476
0.90326476 0.8900147 0.8544009 0.8629101 0.9366107 0.81125563 0.8655556 0.90509427
0.8827906 0.8662897 0.8400676 0.88264954 0.8489387 0.96267134 0.91718835 0.88463295
0.9179923 0.84561527 0.87359285 0.84292066 0.87637764 1.0349611 0.9374826 0.8416288
0.8071715 0.87285334 0.8928777 0.8925413 0.95256865 0.84573597 0.94764566 0.903474
0.81619537 0.8577339 0.8726931 0.90908855 0.9195768 0.8487327 0.82913077 0.9120524
0.8682218 0.97737277 0.85260475 0.83530337 0.92460066 0.8675086 0.88882864 0.931346
0.9023552 0.85540247 0.95933115 0.910682 0.84280086 0.8591935 0.88325524 0.8745737
0.82350653 0.86111295 0.7973131 0.84282434 0.99499995 0.90979534 0.931113 0.89465886
0.9216462 0.84483033 0.9389007 0.8657205 0.9524986 0.8819366 0.8906144 0.9110409
0.82275814 0.8433553 0.84985805 0.88177025 0.8711486 0.859535 0.8396744 0.83847106
0.97811663 0.80295724 0.9108055 0.8796832 0.9211513 0.8804283 0.9202005 0.82164663
0.90659726 0.8877144 0.8882794 0.89333737 0.95657045 0.8846293 0.8299679 0.95980453
0.915173 0.8499714 0.87797374 0.9167468 0.89796144 0.91889286 0.87626135 0.8709442
0.8719068 0.937576 0.88265914 0.9656049 0.8146439 0.9208623 0.8478263 0.90537935
0.89741796 0.8537965 0.8620997 0.8785532 0.8390263 0.8516371 0.88957775 0.9305605
0.9070048 0.9071287 0.8312989 0.8916257 0.8750433 0.8935093 0.8989684 0.8277833
0.8901862 0.9154603 0.9064651 0.84540474 0.9392387 0.92008764 0.95271564 0.8842404
0.8802988 0.8849313 0.85947055 0.9065866 0.8568241 0.9033412 0.89614475 0.8446868
0.7828625 0.8840701 0.9618234 0.841758 0.9160554 0.8720784 0.83828765 0.8790683
0.87762684 0.8577576 0.94323546 0.9084302 0.84947205 0.8574933 0.8906425 0.85068876
0.878396 0.88120127 0.8397606 0.94501954 0.8496884 1.0043044 0.90210485 0.9393707
0.9276004 0.84054416 0.9128517 0.85356075 0.9835591 0.9333586 0.854143 0.9486774
0.85911256 0.9389278 0.95659596 0.9256579
00000000: 71dc 653f 40ca 643f 8ae3 5e3f 935f 573f
00000010: 9c5a 813f d47c 6e3f 84eb 6b3f 4c89 653f
00000020: bf9f 783f c6a3 7c3f 1b14 513f 403a 5a3f
00000030: ddfc 553f 5889 593f 9dbe 663f 9cb1 663f
00000040: 5c3c 673f 01d8 633f 04ba 5a3f ade7 5c3f
00000050: b8c5 6f3f 73ae 4f3f 0d95 5d3f 42b4 673f
00000060: 91fe 613f 29c5 5d3f ac0e 573f 52f5 613f
00000070: 0c54 593f a171 763f dbcc 6a3f 4e77 623f
00000080: 8b01 6b3f 3e7a 583f c8a3 5f3f a6c9 573f
00000090: 495a 603f 9b79 843f dcfe 6f3f fc74 573f
000000a0: cba2 4e3f 5173 5f3f a293 643f 967d 643f
000000b0: 8adb 733f 2782 583f e898 723f 124a 673f
000000c0: 2ef2 503f 7394 5b3f d168 5f3f 07ba 683f
000000d0: 6369 6b3f 8c46 593f ea41 543f 447c 693f
000000e0: c943 5e3f 1a35 7a3f 4e44 5a3f 71d6 553f
000000f0: a1b2 6c3f 0b15 5e3f 468a 633f b16c 6e3f
00000100: c000 673f a8fb 5a3f ba96 753f 7522 693f
00000110: ccc1 573f 1bf4 5b3f 041d 623f 10e4 5f3f
00000120: 53d1 523f e671 5c3f b61c 4c3f 56c3 573f
00000130: 51b8 7e3f 59e8 683f 6c5d 6e3f 5d08 653f
00000140: 01f1 6b3f cd46 583f cc5b 703f dc9f 5d3f
00000150: f3d6 733f 99c6 613f 4eff 633f fa39 693f
00000160: 47a0 523f 22e6 573f 4c90 593f b2bb 613f
00000170: 9803 5f3f 7c0a 5c3f e7f4 563f 0aa6 563f
00000180: da65 7a3f 9b8e 4d3f 8d2a 693f eb32 613f
00000190: 92d0 6b3f c063 613f 4392 6b3f 6f57 523f
000001a0: c216 683f 4041 633f 4766 633f c2b1 643f
000001b0: cde1 743f 1177 623f c778 543f c0b5 753f
000001c0: c748 6a3f ba97 593f e3c2 603f ebaf 6a3f
000001d0: cde0 653f 903c 6b3f aa52 603f 33f6 5e3f
000001e0: 4935 5f3f fb04 703f f3f5 613f e231 773f
000001f0: 818c 503f a2bd 6b3f 250b 593f f1c6 673f
00000200: 2fbd 653f 6892 5a3f 91b2 5c3f dde8 603f
00000210: 6dca 563f e404 5a3f 5ebb 633f 3739 6e3f
00000220: 7731 683f 9639 683f 01d0 543f 9541 643f
00000230: d602 603f 07bd 643f cb22 663f 9be9 533f
00000240: 3ee3 633f 9b5b 6a3f 190e 683f 726c 583f
00000250: f371 703f dd8a 6b3f 2ce5 733f 945d 623f
00000260: 435b 613f dc8a 623f 4306 5c3f 0f16 683f
00000270: d358 5b3f 5e41 673f be69 653f 653d 583f
00000280: ad69 483f 6b52 623f 0f3a 763f 747d 573f
00000290: 9b82 6a3f 8840 5f3f 059a 563f 9f0a 613f
000002a0: 27ac 603f 0196 5b3f e177 713f e28e 683f
000002b0: 0077 593f ae84 5b3f 2601 643f bdc6 593f
000002c0: 8fde 603f 6896 613f 8dfa 563f cdec 713f
000002d0: 2e85 593f 0c8d 803f 58f0 663f 997a 703f
000002e0: 3877 6d3f e72d 573f a6b0 693f f582 5a3f
000002f0: 87ca 7b3f 97f0 6e3f 1ea9 5a3f 86dc 723f
00000300: cdee 5b3f 935d 703f 79e3 743f ebf7 6c3f

network.1.bias f4 [196]
-0.560899 -0.2600371 -0.3629908 -0.47976145 -0.5714151 -0.55062455 -0.41070846 -0.5635762
-0.63657427 -0.44422054 -0.48642126 -0.5168003 -0.37150973 -0.50393313 -0.50556076 -0.45323342
-0.34441826 -0.30009514 -0.664031 -0.43691579 -0.45085388 -0.33739683 -0.34096608 -0.41873142
-0.39626494 -0.5039583 -0.5208666 -0.34886456 -0.507346 -0.39783323 -0.5142613 -0.34236446
-0.5956876 -0.3622126 -0.5311105 -0.44869563 -0.38030806 -0.42790493 -0.6128596 -0.45168734
-0.5101503 -0.42720914 -0.5250505 -0.61254615 -0.3205294 -0.36891028 -0.2959133 -0.3992118
-0.5726185 -0.3313439 -0.2765985 -0.43805495 -0.54331243 -0.41270515 -0.43784377 -0.41696948
-0.47458425 -0.6117104 -0.4842948 -0.4711811 -0.42998034 -0.43603632 -0.513693 -0.513775
-0.26427928 -0.44807473 -0.4902802 -0.40364358 -0.53009915 -0.44481412 -0.33178854 -0.40354875
-0.5394876 -0.3471875 -0.43097612 -0.47659448 -0.396918 -0.4735747 -0.5096549 -0.3609152
-0.58655 -0.26859096 -0.41632897 -0.4159449 -0.59322935 -0.41953713 -0.21929777 -0.47297123
-0.4810866 -0.36704114 -0.39205125 -0.5454664 -0.45482364 -0.17091946 -0.5821959 -0.54448694
-0.5291119 -0.22088234 -0.44832295 -0.5201764 -0.6298796 -0.48026562 -0.5383842 -0.31438616
-0.25532177 -0.37227014 -0.4966335 -0.47804537 -0.45107132 -0.4555629 -0.45264244 -0.43460906
-0.40087488 -0.42858693 -0.42671698 -0.47437468 -0.3980661 -0.47060424 -0.38114187 -0.36368343
-0.38427863 -0.48586187 -0.41607782 -0.515798 -0.45464173 -0.32737002 -0.52475536 -0.62420917
-0.539086 -0.41434452 -0.42675832 -0.25037742 -0.45223832 -0.29026058 -0.5150721 -0.46438923
-0.37715405 -0.39503694 -0.30060107 -0.48391965 -0.45914677 -0.39788926 -0.38849327 -0.35368416
-0.5157532 -0.44048607 -0.5613046 -0.44283864 -0.3868058 -0.48258638 -0.4800593 -0.5024635
-0.6257575 -0.5242528 -0.4167348 -0.57557696 -0.45367602 -0.41257575 -0.3936305 -0.4055445
-0.35445252 -0.53830135 -0.40133432 -0.45817506 -0.41418862 -0.37605506 -0.6275011 -0.48612225
-0.36304063 -0.3706024 -0.44631362 -0.39535025 -0.36799452 -0.44280252 -0.3252793 -0.49754024
-0.48124066 -0.48884287 -0.46149045 -0.45538983 -0.3228768 -0.5039887 -0.22350428 -0.43496034
-0.39147195 -0.30422238 -0.32178113 -0.5592523 -0.6433306 -0.5096405 -0.27344143 -0.46715128
-0.2185968 -0.44121167 -0.40348437 -0.30501518
00000000: 1497 0fbf 9523 85be eed9 b9be 4ba3 f5be
00000010: 4348 12bf bbf5 0cbf 6148 d2be 8846 10bf
00000020: 88f6 22bf e070 e3be 350c f9be 064d 04bf
00000030: 8636 bebe c301 01bf 6e6c 01bf 360e e8be
00000040: 9757 b0be 12a6 99be f0fd 29bf 6db3 dfbe
00000050: 52d6 e6be 47bf acbe 1b93 aebe f763 d6be
00000060: 3de3 cabe 6903 01bf 8357 05bf 609e b2be
00000070: 6de1 01bf ccb0 cbbe a1a6 03bf 654a afbe
00000080: fc7e 18bf ee73 b9be dcf6 07bf 6fbb e5be
00000090: bdb7 c2be 5b16 dbbe 5ee4 1cbf 9043 e7be
000000a0: 3699 02bf 28bb dabe b669 06bf d3cf 1cbf
000000b0: 6e1c a4be cfe1 bcbe f381 97be 7d65 ccbe
000000c0: 2097 12bf e8a5 a9be 529e 8dbe bd48 e0be
000000d0: 8616 0bbf 174e d3be 0f2d e0be 067d d5be
000000e0: b5fc f2be 0e99 1cbf 7df5 f7be a63e f1be
000000f0: 6226 dcbe 2740 dfbe 6281 03bf c286 03bf
00000100: 9d4f 87be 0d6a e5be 0206 fbbe 5faa cebe
00000110: 94b4 07bf adbe e3be 30e0 a9be f19d cebe
00000120: dc1b 0abf 8fc2 b1be e7a8 dcbe 3104 f4be
00000130: d638 cbbe 6278 f2be be78 02bf e1c9 b8be
00000140: 2428 16bf c184 89be 1229 d5be bbf6 d4be
00000150: e1dd 17bf 92cd d6be 988f 60be 4929 f2be
00000160: fc50 f6be d1ec bbbe f1ba c8be b0a3 0bbf
00000170: a5de e8be 8305 2fbe ca0a 15bf 7f63 0bbf
00000180: e173 07bf fb2e 62be 968a e5be 482a 05bf
00000190: ca3f 21bf 60e5 f5be 8cd3 09bf 39f7 a0be
000001a0: 89b9 82be 319a bebe bf46 febe 5dc2 f4be
000001b0: d2f2 e6be 8a3f e9be c0c0 e7be 1485 debe
000001c0: 793f cdbe bf6f dbbe a67a dabe 3de1 f2be
000001d0: 52cf cbbe 0af3 f0be 0725 c3be b734 babe
000001e0: 2bc0 c4be e3c2 f8be 2708 d5be 560b 04bf
000001f0: cdc6 e8be 0b9d a7be 5e56 06bf 2ccc 1fbf
00000200: 8a01 0abf f724 d4be 1180 dabe 7831 80be
00000210: c88b e7be 099d 94be c4db 03bf 6dc4 edbe
00000220: 561a c1be 4842 cabe 62e8 99be 51c4 f7be
00000230: 4915 ebbe 24b8 cbbe 97e8 c6be 1716 b5be
00000240: 6708 04bf 6487 e1be a9b1 0fbf bfbb e2be
00000250: 690b c6be 9015 f7be 55ca f5be 73a1 00bf
00000260: a531 20bf 6e35 06bf 445e d5be 0359 13bf
00000270: 3948 e8be 213d d3be f089 c9be 87a3 cfbe
00000280: cd7a b5be 1ece 09bf b17b cdbe ec95 eabe
00000290: 8810 d4be 4a8a c0be e9a3 20bf 04e5 f8be
000002a0: 76e0 b9be 99bf bdbe 3883 e4be 596b cabe
000002b0: c769 bcbe 03b7 e2be 028b a6be 98bd febe
000002c0: 2d65 f6be 9d49 fabe 7a48 ecbe db28 e9be
000002d0: 1c50 a5be 6705 01bf 4ede 64be 1fb3 debe
000002e0: 036f c8be 09c3 9bbe 7fc0 a4be 292b 0fbf
000002f0: 50b1 24bf cd77 02bf 8400 8cbe 742e efbe
00000300: d7d7 5fbe 7fe6 e1be 8195 cebe f32a 9cbe

network.1.running_mean f4 [196]
-1.0026739 -0.7357416 -0.61487764 -0.8402631 -0.735609 -0.8644768 -1.9019207 -0.7993281
-0.63489443 -0.4474266 -0.88595515 -0.21153162 -0.10746356 -0.77078724 -0.53002965 -0.64467824
-0.23340258 -0.39369294 -0.6557107 0.27262974 -0.82974076 -0.41699454 -0.37213624 -0.835788
-0.1871891 -0.54133725 -1.9798868 -0.49613434 -0.7504012 -0.28930944 -1.4449446 -0.73211944
-0.6782765 -0.3910473 -1.1448722 -0.53081113 -0.24920927 -0.4903507 -1.1136397 -0.5784119
-2.0928 -0.47351104 -0.80534655 -1.7691752 -0.29764688 -0.7690437 -0.053150255 -0.13027239
-1.2116399 -0.007875121 -0.20941179 -0.9074113 -1.3377333 0.17595284 -0.19646448 -0.64650226
-0.58714354 -0.7882386 -2.331447 -0.255104 -0.28070638 -1.0704292 -0.80003476 -0.70038676
-0.8357363 -0.76338816 -1.035758 -0.25837928 -0.27263975 -0.49537748 -0.75622964 0.29125643
-0.3512104 -0.7605353 -0.5347645 -0.6230497 0.33720893 -0.70457625 -1.475733 -0.3982823
-0.70315313 -0.24752259 -1.3211446 -0.03136412 -0.7683225 -0.93045324 0.18722947 -0.52766204
-0.27894083 -0.016274488 -0.4394082 -1.0690838 -0.7008104 -0.17111763 -0.35266104 -2.300608
-0.7562069 1.0995089 -0.6917581 -0.37048858 -0.43108937 0.038846232 -0.61685264 -0.21844643
-0.59452057 -0.18041368 -1.018129 -1.0927628 -0.91479623 -0.35273463 -0.29055244 -0.31960154
-0.09597424 -0.7508606 -0.52350885 -0.39585623 -1.2463064 -0.49162537 0.5483476 -0.017754486
-0.46106204 -0.1859147 -0.489266 -0.3457487 -0.89375585 -0.761278 -0.65157396 -0.5874485
-1.0256097 -1.1600932 -0.564556 -0.7122829 -0.4872535 0.15458718 -0.13910644 -1.2438993
-0.8116009 -0.35612947 0.055010326 -0.7821169 -1.0958825 -0.102944575 -1.0586523 -0.70532143
-0.9319096 -0.062375482 -0.21696691 -0.44993857 -0.5165178 -0.8777116 -0.65650916 -1.0489409
-0.87449265 -1.5013794 0.25339144 -0.5865999 0.72651345 -0.0038333 -0.009419008 -1.2183342
-0.4495157 -0.7160569 -0.5296295 -0.25447288 -0.35426387 -0.77681196 -1.3452923 -0.86370265
0.07560249 0.21314655 -0.25077075 -0.6280519 -0.22700045 -1.33649 0.8287438 -0.5277952
-0.8386593 -0.42250723 -0.6236433 -0.48181763 -0.56518847 -0.7725761 -0.36139843 -0.28951356
-0.69125557 -0.46917832 -0.4157282 -0.20759784 -0.8142014 -0.82086736 0.06550748 -0.81960565
0.13469006 -0.4336928 -0.8377807 -0.07286983
00000000: 9e57 80bf 9059 3cbf 9f68 1dbf 7c1b 57bf
00000010: df50 3cbf 5a4e 5dbf 2372 f3bf c4a0 4cbf
00000020: 7188 22bf 1915 e5be f5cd 62bf bf9b 58be
00000030: db15 dcbd 5052 45bf 06b0 07bf a209 25bf
00000040: 1601 6fbe 1f92 c9be a8dc 27bf 2096 8b3e
00000050: e469 54bf 4f80 d5be a488 bebe 34f6 55bf
00000060: 80ae 3fbe 1495 0abf ee6c fdbf 5205 febe
00000070: 4b1a 40bf 5e20 94be f2f3 b8bf 2e6c 3bbf
00000080: 87a3 2dbf 5a37 c8be 2c8b 92bf 3de3 07bf
00000090: b730 7fbe 3f0f fbbe bf8b 8ebf cd12 14bf
000000a0: 6ff0 05c0 0a70 f2be 312b 4ebf 5574 e2bf
000000b0: 2c65 98be 0ce0 44bf 15b4 59bd 2066 05be
000000c0: 0417 9bbf a706 01bc 0b70 56be 1b4c 68bf
000000d0: d83a abbf fb2c 343e fc2d 49be 2c81 25bf
000000e0: 0a4f 16bf 01ca 49bf 6d36 15c0 fe9c 82be
000000f0: bfb8 8fbe d303 89bf 14cf 4cbf 8c4c 33bf
00000100: d0f2 55bf 686d 43bf b893 84bf 4a4a 84be
00000110: 7097 8bbe 1ea2 fdbe 4498 41bf 901f 953e
00000120: d9d1 b3be 71b2 42bf 54e6 08bf 2f80 1fbf
00000130: a6a6 ac3e 1c5f 34bf d2e4 bcbf a8eb cbbe
00000140: d801 34bf 9076 7dbe 441b a9bf aa77 00bd
00000150: c9b0 44bf 2f32 6ebf 15b9 3f3e dc14 07bf
00000160: 55d1 8ebe 1352 85bc 1dfa e0be bdd7 88bf
00000170: 4f68 33bf 7639 2fbe fd8f b4be 293d 13c0
00000180: c796 41bf b5bc 8c3f 0f17 31bf aeb0 bdbe
00000190: bfb7 dcbe 3a1d 1f3d 0eea 1dbf 6cb0 5fbe
000001a0: 8032 18bf 5dbe 38be 0d52 82bf a7df 8bbf
000001b0: 1630 6abf a299 b4be 4ac3 94be d0a2 a3be
000001c0: 248e c4bd 6638 40bf ad04 06bf abad cabe
000001d0: f886 9fbf 52b6 fbbe 8260 0c3f db71 91bc
000001e0: 5310 ecbe 6c60 3ebe 1381 fabe f905 b1be
000001f0: 2fcd 64bf 1de3 42bf 8dcd 26bf 0663 16bf
00000200: 2e47 83bf ef7d 94bf be86 10bf 2c58 36bf
00000210: 4a79 f9be 1a4c 1e3e eb71 0ebe 1838 9fbf
00000220: 14c5 4fbf 9a56 b6be 8252 613d d038 48bf
00000230: e145 8cbf 9bd4 d2bd eb81 87bf f28f 34bf
00000240: a191 6ebf 6f7d 7fbd 932c 5ebe 595e e6be
00000250: 833a 04bf b5b1 60bf fc10 28bf b243 86bf
00000260: c0de 5fbf 332d c0bf 86bc 813e 692b 16bf
00000270: c9fc 393f 1a38 7bbb 2f52 1abc 60f2 9bbf
00000280: ec26 e6be 814f 37bf cd95 07bf 454a 82be
00000290: 1362 b5be 26dd 46bf 8a32 acbf 9e1b 5dbf
000002a0: 7ad5 9a3d 1743 5a3e 0665 80be 02c8 20bf
000002b0: ce72 68be 1b12 abbf 8e28 543f 961d 07bf
000002c0: 60b2 56bf de52 d8be 16a7 1fbf cdb0 f6be
000002d0: 31b0 10bf 8cc7 45bf 3709 b9be 1f3b 94be
000002e0: 20f6 30bf 2438 f0be 54da d4be 8794 54be
000002f0: 816f 50bf 5d24 52bf c928 863d add1 51bf
00000300: 31ec 093e fc0c debe cc78 56bf c73c 95bd

network.1.running_var f4 [196]
1.5669304 0.9303581 1.2812929 1.0988384 1.2916156 1.6009343 1.4491614 2.1975098
1.358249 0.8494636 1.051033 1.4898882 0.94991195 0.8576179 1.3144947 1.7512314
1.0260859 1.394702 1.0127789 0.8771844 1.6614465 1.1487855 1.391751 1.1289483
0.7206649 1.8292856 1.418596 1.6505903 1.0716567 1.2235949 1.7541804 2.0005164
1.2957666 0.90740496 1.4781762 1.0377399 1.9465708 1.2875698 1.0515978 1.4329439
1.5505983 1.5698054 2.1048305 1.5001805 1.3901585 1.5420364 1.2729133 1.1902086
1.4467738 1.463984 1.6657213 1.7406142 1.312091 1.6740562 1.6004741 1.4844834
1.6994972 1.6521295 2.2128248 1.0848736 1.2193689 1.4154937 1.1895714 1.1133595
3.6787324 1.3067045 1.725233 1.1608956 1.0456762 1.013556 0.99159104 1.2666531
0.9291991 0.98871684 0.75433695 0.65549546 0.8062295 1.1780814 2.030358 1.9485245
1.7044079 1.3931408 2.0641146 1.1851878 1.302056 2.0843303 0.974173 1.0242102
1.1621141 0.94348484 1.2912564 1.8030735 1.2292161 1.7804831 0.8049712 2.4465008
1.1430458 1.6953738 1.4496343 1.2530566 1.3517616 0.81585526 0.7884551 1.1051158
1.7886556 0.9646003 1.3420818 1.2930017 1.1579698 2.2884097 0.9627383 1.8642976
1.5431504 1.5879201 0.8692073 1.696586 1.9979846 1.3251321 1.4481976 1.0318863
1.4436555 0.9054874 0.8544021 0.8804974 0.93520504 1.6069915 0.8602541 1.0215062
1.1164424 1.6012967 1.6105237 1.0290134 1.5695491 1.3377253 1.0862247 1.4477594
2.0415783 1.1877062 1.0128495 1.2202884 1.9665755 1.7468439 1.6335326 1.2499549
1.3247908 0.89187807 0.8111461 1.1074501 1.2261256 1.7904081 1.6165164 1.4817798
0.90815437 1.8476343 1.2382419 1.1107208 1.3116431 1.5658414 1.5477802 1.385089
0.89753824 1.4835199 1.5475308 0.9981731 1.3120534 1.5031699 1.101269 1.8290639
0.58501446 1.6135868 0.82084167 1.8616533 1.1862733 1.213265 0.978595 2.2747347
1.4219244 0.9628498 1.3644874 1.3800212 1.5942448 1.4329739 1.8804272 1.6239896
1.4290924 1.046668 1.8305064 1.3384366 1.4454943 1.7064672 1.3842058 1.0918559
0.9722421 1.0826898 1.6203456 1.0581646
00000000: 2d91 c83f f32b 6e3f 6801 a43f bda6 8c3f
00000010: a953 a53f 6aeb cc3f 1f7e b93f 00a4 0c40
00000020: 1adb ad3f 7276 593f 4088 863f a8b4 be3f
00000030: 6e2d 733f d98c 5b3f 5d41 a83f 5a28 e03f
00000040: c856 833f 9885 b23f bda2 813f 288f 603f
00000050: 47aa d43f 670b 933f e624 b23f 6181 903f
00000060: 7f7d 383f 0826 ea3f 8e94 b53f 8b46 d33f
00000070: 0c2c 893f c29e 9c3f fc88 e03f 7608 0040
00000080: aedb a53f b14b 683f e134 bd3f a9d4 843f
00000090: 3b29 f93f 16cf a43f c29a 863f b56a b73f
000000a0: 017a c63f 62ef c83f 8bb5 0640 ea05 c03f
000000b0: b7f0 b13f 7361 c53f d3ee a23f c158 983f
000000c0: e22f b93f d463 bb3f 5b36 d53f 72cc de3f
000000d0: 99f2 a73f 7947 d63f 56dc cc3f 8d03 be3f
000000e0: 2089 d93f fb78 d33f ec9e 0d40 23dd 8a3f
000000f0: 4814 9c3f e62e b53f e043 983f 9082 8e3f
00000100: 5a70 6b40 1842 a73f 6fd4 dc3f 3a98 943f
00000110: b8d8 853f 34bc 813f e9d8 7d3f b021 a23f
00000120: fedf 6d3f 8c1c 7d3f 3a1c 413f 8dce 273f
00000130: 0e65 4e3f 5fcb 963f 63f1 0140 4069 f93f
00000140: 0a2a da3f 7052 b23f 741a 0440 3cb4 973f
00000150: c5a9 a63f ab65 0540 6763 793f 5219 833f
00000160: 28c0 943f 3988 713f e447 a53f 1dcb e63f
00000170: f456 9d3f dfe6 e33f 9812 4e3f 7893 1c40
00000180: 534f 923f 0202 d93f 9e8d b93f 2964 a03f
00000190: 8606 ad3f e4db 503f 32d8 493f 6f74 8d3f
000001a0: abf2 e43f 0cf0 763f 56c9 ab3f 1481 a53f
000001b0: 5b38 943f 4e75 1240 0476 763f 4ea1 ee3f
000001c0: f485 c53f f740 cb3f 5f84 5e3f bb29 d93f
000001d0: f6bd ff3f ee9d a93f 8a5e b93f da14 843f
000001e0: b4c9 b83f 06ce 673f 19ba 5a3f 4768 613f
000001f0: 9969 6f3f e6b1 cd3f 9d39 5c3f b7c0 823f
00000200: 96e7 8e3f 4af7 cc3f a425 ce3f b6b6 833f
00000210: fce6 c83f 953a ab3f 6909 8b3f 2e50 b93f
00000220: 38a9 0240 c206 983f 0da5 813f 6932 9c3f
00000230: bfb8 fb3f 9598 df3f 9917 d13f 86fe 9f3f
00000240: bf92 a93f 1f52 643f 45a7 4f3f edc0 8d3f
00000250: aff1 9c3f 182c e53f 02ea ce3f f6aa bd3f
00000260: ce7c 683f 487f ec3f b67e 9e3f 192c 8e3f
00000270: ece3 a73f 7e6d c83f a91d c63f 994a b13f
00000280: 11c5 653f fbe3 bd3f 7d15 c63f 4688 7f3f
00000290: 5ef1 a73f df67 c03f 62f6 8c3f c41e ea3f
000002a0: 82c3 153f 038a ce3f ae22 523f a84a ee3f
000002b0: ced7 973f 444c 9b3f 3485 7a3f 4195 1140
000002c0: 9e01 b63f 537d 763f 86a7 ae3f 89a4 b03f
000002d0: 3710 cc3f b06b b73f d7b1 f03f e4de cf3f
000002e0: 80ec b63f 38f9 853f 094e ea3f e451 ab3f
000002f0: f505 b93f 846d da3f a82d b13f efc1 8b3f
00000300: dce4 783f 9495 8a3f 7c67 cf3f f071 873f

network.4.weight f4 [99, 196]
-0.05922359 -0.0193592 -0.010754918 -0.041276224 0.0870948 -0.24928868 -0.09153209 -0.07535207
0.026036933 0.10424862 0.084291175 0.066506445 -0.06315612 -0.051275615 0.044068974 0.07243996
-0.24943246 -0.08372606 -0.04583678 -0.05611582 -0.010292588 0.017748505 0.05943498 0.041480426
-0.1540783 0.042831283 0.014224495 -0.09273132 0.075111605 -0.157449 0.06793986 0.028161988
0.09636197 -0.014978496 -0.014383028 -0.0750994 0.043908775 0.016332867 -0.18621399 -0.031649254
-0.103055425 0.05450192 0.04880697 -0.15880235 -0.11725595 -0.06758361 -0.20302527 -0.17681094
-0.061885655 0.12661277 0.0113716535 -0.02101216 -0.10447985 -0.087418586 -0.019160787 -0.21562672
0.012029444 -0.10972282 -0.16260706 0.031211203 0.028061725 0.009209144 -0.0138581395 -0.13994786
0.04636392 -0.055371538 0.12000114 0.07997339 0.0074730827 0.015797544 -0.022607516 -0.011021659
0.025386984 0.053496085 -0.12548837 -0.082863115 0.03873733 0.04595107 0.017788565 -0.005600745
-0.027384683 0.02581698 -0.07478745 -0.027696254 0.008939482 0.14098783 0.062018406 0.027139816
-0.122547306 0.028184043 -0.024991767 0.08633733 -0.04506465 0.07088014 0.026339663 -0.012767472
-0.2718819 0.0006520987 0.12601556 -0.059222326 -0.21513203 -0.062146273 -0.19334956 -0.012652203
0.108217485 -0.019035649 0.06365161 -0.053090554 -0.17351258 0.05920966 -0.05887861 -0.048051268
-0.28004652 0.08229464 0.071431786 0.05648849 0.0072506913 -0.27917987 -0.026484357 -0.040584855
-0.01615133 0.05028505 -0.08381522 0.013544325 -0.0027797294 0.05886706 -0.20234801 -0.029383479
0.01284207 -0.015167979 -0.07176905 0.017930906 0.034321573 0.045103207 -0.0021511046 0.116599746
0.01370318 -0.04850619 -0.10122587 -0.0025007774 0.011334967 0.060568187 0.035769675 -0.022397952
-0.06373483 -0.11775329 -0.23252735 -0.0035860199 -0.099400625 -0.067868695 -0.0297503 0.0032776918
-0.061695423 0.053037632 -0.009730094 0.04692589 -0.08220534 0.016927894 -0.011833083 4.031082e-05
-0.11124779 0.12542242 -0.011385425 -0.048035964 0.014441884 0.006964224 -0.019287903 0.002528827
0.10328948 -0.12250136 -0.1896599 -0.019722138 0.008496388 0.0726013 -0.093901515 0.051866278
-0.05735814 -0.0030089065 0.07220589 -0.36590806 -0.0659619 0.06596361 0.09318955 0.16035174
0.016915241 0.052937556 0.114396304 0.043974962 0.048072856 0.06374806 -0.055602588 -0.02544662
0.02447357 -0.23124994 0.03442103 -0.03207039 0.059662912 -0.010442365 -0.047678173 0.10148885
0.1424699 -0.08116725 0.054629993 -0.14208469 -0.035577185 0.0010505677 0.04799723 -0.07869124
0.06346064 0.023168169 0.043605432 -0.30396745 0.0050159004 0.007676977 -0.09601429 -0.007508201
0.028393416 -0.07006707 -0.015294007 0.016701704 0.074371606 -0.106093235 -0.07878906 0.024547312
0.023919549 -0.011252274 -0.025540803 0.018379254 0.074796915 0.07740747 0.11846259 -0.04329278
0.049638525 0.016809205 -0.05887265 0.1123457 0.08240047 -0.13047822 -0.19523773 0.12804857
-0.021607121 0.024458332 -0.0014368361 0.083285995 -0.16384956 -0.03232534 0.0025995406 -0.13452233
0.010537097 -0.02850239 0.06965844 0.034710947 -0.21596651 -0.07062041 0.023921756 0.07718896
00000000: 6f94 72bd 2f97 9ebc 6535 30bc 4211 29bd
00000010: c25e b23d 8845 7fbe 2d75 bbbd 3052 9abd
00000020: 684b d53c 4d80 d53d daa0 ac3d 8834 883d
00000030: ff57 81bd 6106 52bd ab81 343d 675b 943d
00000040: 396b 7fbe 9278 abbd 59bf 3bbd b4d9 65bd
00000050: 3ea2 28bc 5065 913c 1872 733d 61e7 293d
00000060: b4c6 1dbe db6f 2f3d db0d 693c ebe9 bdbd
00000070: 1dd4 993d 503a 21be 0e24 8b3d f8b3 e63c
00000080: 6d59 c53d 5e68 75bc cba6 6bbc b7cd 99bd
00000090: b0d9 333d 81cc 853c e1ae 3ebe a6a2 01bd
000000a0: b90e d3bd 683d 5f3d d1e9 473d 159d 22be
000000b0: e323 f0bd 4769 8abd dbe5 4fbe ed0d 35be
000000c0: d07b 7dbd c7a6 013e 2c50 3a3c b221 acbc
000000d0: 88f9 d5bd 8408 b3bd 15f7 9cbc 40cd 5cbe
000000e0: 2517 453c 5cb6 e0bd 7782 26be a3ae ff3c
000000f0: b4e1 e53c f3e1 163c 400d 63bc 7e4e 0fbe
00000100: 18e8 3d3d 44cd 62bd 28c3 f53d 17c9 a33d
00000110: c3e0 f43b da69 813c 6633 b9bc 3094 34bc
00000120: 5df8 cf3c b61e 5b3d 0680 00be 23b4 a9bd
00000130: 09ab 1e3d 3037 3c3d 53b9 913c 7486 b7bb
00000140: d855 e0bc 227e d33c 2a2a 99bd 41e3 e2bc
00000150: e876 123c 1d5f 103e 0307 7e3d 5254 de3c
00000160: 15fa fabd 39e2 e63c 89bb ccbc a0d1 b03d
00000170: b695 38bd 9b29 913d 47c6 d73c a92e 51bc
00000180: 1b34 8bbe 9af1 2a3a 390a 013e 1c93 72bd
00000190: 924b 5cbe 178d 7ebd 6dfd 45be 304b 4fbc
000001a0: 21a1 dd3d a6f0 9bbc c65b 823d 7b75 59bd
000001b0: 48ad 31be d485 723d b32a 71bd 68d1 44bd
000001c0: 4262 8fbe 188a a83d d44a 923d 7a60 673d
000001d0: 3597 ed3b aaf0 8ebe b9f5 d8bc 4e3c 26bd
000001e0: cb4f 84bc b2f7 4d3d 50a7 abbd 04e9 5d3c
000001f0: 1f2c 36bb 961e 713d 5134 4fbe 9fb5 f0bc
00000200: 8c67 523c 1d83 78bc a7fb 92bd d6e3 923c
00000210: c794 0c3d 24be 383d 8cf9 0cbb d9cb ee3d
00000220: 4d83 603c 6dae 46bd 824f cfbd 15e4 23bb
00000230: 4cb6 393c 5916 783d 3983 123d e97b b7bc
00000240: 6887 82bd a328 f1bd a61b 6ebe 6e03 6bbb
00000250: 8e92 cbbd befe 8abd e7b6 f3bc 8bce 563b
00000260: 57b4 7cbd fd3d 593d f96a 1fbc 5d35 403d
00000270: 465b a8bd 5eac 8a3c 8cdf 41bc 6a13 2938
00000280: e2d5 e3bd bc6e 003e ef89 3abc 5cc1 44bd
00000290: a79d 6c3c 2534 e43b aa01 9ebc adba 253b
000002a0: 6f89 d33d fee1 fabd 3436 42be 5290 a1bc
000002b0: 6f34 0b3c feaf 943d 704f c0bd bc71 543d
000002c0: 5ef0 6abd 1331 45bb afe0 933d 4d58 bbbe
000002d0: 0817 87bd ee17 873d 2ada be3d 3f33 243e
000002e0: d591 8a3c 0dd5 583d 9c48 ea3d 171f 343d
000002f0: 0be8 443d 588e 823d 8abf 63bd 6e75 d0bc
00000300: cc7c c83c c9cc 6cbe 11fd 0c3d 3e5c 03bd
00000310: 1961 743d 7416 2bbc 304a 43bd 63d9 cf3d
00000320: a1e3 113e 043b a6bd b3c3 5f3d a67e 11be
00000330: 62b9 11bd 34b3 893a be98 443d df28 a1bd
00000340: a7f7 813d 2ccb bd3c 9c9b 323d 9fa1 9bbe
00000350: 6c5c a43b 278f fb3b 24a3 c4bd 5b07 f6bb
00000360: 4f99 e83c 537f 8fbd b793 7abc 03d2 883c
00000370: 2450 983d 6947 d9bd 295c a1bd 7217 c93c
00000380: eef2 c33c 755b 38bc f23a d1bc 1790 963c
00000390: 202f 993d cf87 9e3d 849c f23d c553 31bd
000003a0: c451 4b3d 75b3 893c 7324 71bd 8115 e63d
000003b0: 94c1 a83d 159c 05be 66ec 47be 2a1f 033e
000003c0: 6b01 b1bc d75c c83c 3854 bcba d991 aa3d
000003d0: 2ec8 27be 9367 04bd 0e5d 2a3b 39c0 09be
000003e0: caa3 2c3c d87d e9bc 16a9 8e3d 112d 0e3d
000003f0: 5326 5dbe 6fa1 90bd 8ff7 c33c 3f15 9e3d

network.4.bias f4 [99]
-0.05907508 0.06834002 -0.012586403 0.029238224 0.010718888 0.07487035 -0.025936972 0.05280796
-0.021832544 -0.017727775 -0.049753502 0.012959689 -0.05207818 -0.057810508 -0.014836607 -0.03847942
-0.055439275 0.018876024 -0.061106812 -0.017767973 -0.011424949 0.010124989 0.038206924 0.029286189
-0.011160411 0.06310669 0.053667348 -0.015843429 0.025249112 -0.0131262485 -0.04485599 0.002909975
-0.053655755 -0.03166032 0.037418887 -0.050506763 -0.026655767 -0.059441295 0.0032372032 0.054143082
-0.01863363 -0.012774669 -0.045755293 -0.057029065 0.032445863 0.027173746 -0.038679376 0.0028354188
-0.074608706 -0.05767077 0.04298947 -0.0015119317 -0.015553694 -0.058892682 0.0343839 -0.010876685
-0.026228176 -0.026441583 0.045977004 -0.057383265 -0.043627746 -0.060168717 0.065790266 0.01856852
-0.017165499 -0.0012573582 -0.05172345 -0.05759664 0.019652653 0.06087849 -0.02120143 0.038595423
0.0027868906 -0.016234424 0.022481414 -0.057016302 0.010613083 -0.063593104 0.0010971198 0.052719533
0.050962333 -0.063225575 -0.053182192 -0.07843048 0.030543001 -0.054583456 -0.052263595 0.03789312
-0.014815268 -0.011993249 0.035344016 -0.021660337 0.06273169 -0.07518827 0.0072281105 0.036317773
0.024275046 -0.05887651 0.0033874407
00000000: b6f8 71bd daf5 8b3d 3337 4ebc 0085 ef3c
00000010: 469e 2f3c a055 993d c679 d4bc 294d 583d
00000020: 2ada b2bc d739 91bc 54ca 4bbd e054 543c
00000030: ee4f 55bd b6ca 6cbd 3d15 73bc 999c 1dbd
00000040: 4b14 63bd e4a1 9a3c 234b 7abd 248e 91bc
00000050: b62f 3bbc 48e3 253c dd7e 1c3d 97e9 ef3c
00000060: 28da 36bc 153e 813d 4bd2 5b3d 14ca 81bc
00000070: 3ad7 ce3c 7a0f 57bc eaba 37bd 47b5 3e3b
00000080: 23c6 5bbd 40ae 01bd 8c44 193d 2ee0 4ebd
00000090: 325d dabc b778 73bd 4227 543b 23c5 5d3d
000000a0: 8ea5 98bc d84c 51bc e769 3bbd 4f97 69bd
000000b0: f4e5 043d 7a9b de3c 446e 1ebd 6fd2 393b
000000c0: 73cc 98bd 2f38 6cbd ba15 303d 022c c6ba
000000d0: ecd4 7ebc 7439 71bd 22d6 0c3d 2034 32bc
000000e0: 79dc d6bc 059c d8bc 6252 3c3d b70a 6bbd
000000f0: 02b3 32bd 7973 76bd 0cbd 863d 021d 983c
00000100: a99e 8cbc f1cd a4ba f8db 53bd 74ea 6bbd
00000110: 9afe a03c b95b 793d 9fae adbc 3c16 1e3d
00000120: 44a4 363b 0efe 84bc f12a b83c ed89 69bd
00000130: 7fe2 2d3c 1a3d 82bd 3bcd 8f3a 70f0 573d
00000140: e1bd 503d 697c 81bd 92d5 59bd 29a0 a0bd
00000150: 5135 fa3c e792 5fbd 5a12 56bd d135 1b3d
00000160: bdbb 72bc 557f 44bc e3c4 103d 0571 b1bc
00000170: 7979 803d 4ffc 99bd c9d9 ec3b f2c1 143d
00000180: 76dc c63c 7f28 71bd d3ff 5d3b

network.5.weight f4 [99]
0.978885 0.88401455 0.9106964 0.9629675 0.9796837 0.97912496 0.9337849 0.9343895
0.99591994 0.94444156 0.9083789 0.8998432 0.9210184 0.9667031 0.9855817 0.9893017
0.88167536 0.98011744 0.9802175 0.96665055 0.9517153 0.9021494 0.94307756 0.96325374
0.93618953 0.8865601 0.95130885 0.94295835 0.9427282 0.926077 0.9403222 0.9292346
1.0031011 0.9600614 0.9112513 0.908153 0.95004797 0.9222599 0.90363914 0.9087259
0.93722117 0.9387983 0.9615094 0.9558576 0.9401471 0.98927724 0.87215114 0.9300456
0.87610173 0.93192554 0.95745933 0.97461146 1.0497755 0.99310464 0.96767527 0.9074635
0.90111315 1.0016571 0.98403794 0.9373433 0.92839694 0.93995005 0.9340681 0.9528405
0.92761177 0.91402537 0.9067161 0.9377837 0.97363985 0.9499564 0.8995689 0.9254044
0.95200056 0.9124842 0.94651455 0.94374144 0.91449755 1.0598605 0.9207718 0.8741409
0.9079763 0.9182803 0.85527855 0.8856663 0.9682646 0.9961956 0.99823755 0.9542525
0.9673086 0.9748263 1.0019228 0.9070543 0.9481211 0.970256 0.9259718 0.94480133
0.9470117 1.0126587 0.9331503
00000000: 3598 7a3f c74e 623f 6623 693f 0a85 763f
00000010: 8dcc 7a3f efa7 7a3f 870c 6f3f 2634 6f3f
00000020: 9cf4 7e3f ecc6 713f 858b 683f 205c 663f
00000030: ddc7 6b3f db79 773f 154f 7c3f e042 7d3f
00000040: 7ab5 613f fae8 7a3f 89ef 7a3f 6976 773f
00000050: 9da3 733f 43f3 663f 886d 713f cc97 763f
00000060: 1eaa 6f3f 9af5 623f fa88 733f b865 713f
00000070: a356 713f 6213 6d3f f5b8 703f 52e2 6d3f
00000080: 9e65 803f 95c6 753f c447 693f b77c 683f
00000090: 5836 733f 3a19 6c3f e554 673f 43a2 683f
000000a0: baed 6f3f 1655 703f 7b25 763f 15b3 743f
000000b0: 7bad 703f 4641 7d3f 4c45 5f3f 7817 6e3f
000000c0: 3448 603f ac92 6e3f 0e1c 753f 2380 793f
000000d0: 0b5f 863f 1b3c 7e3f 91b9 773f 874f 683f
000000e0: 5aaf 663f 4d36 803f e9e9 7b3f bbf5 6f3f
000000f0: 6cab 6d3f 91a0 703f 161f 6f3f 5bed 733f
00000100: f777 6d3f 91fd 693f 8c1e 683f 9812 703f
00000110: 7640 793f 5830 733f 264a 663f 4ee7 6c3f
00000120: 4fb6 733f 9198 693f c74e 723f 0a99 713f
00000130: 831c 6a3f 82a9 873f b3b7 6b3f b3c7 5f3f
00000140: 2371 683f 6b14 6b3f 89f3 5a3f 07bb 623f
00000150: 30e0 773f ad06 7f3f 7f8c 7f3f e449 743f
00000160: 89a1 773f 378e 793f 023f 803f b634 683f
00000170: 10b8 723f b262 783f 7d0c 6d3f 80de 713f
00000180: 5c6f 723f cd9e 813f f0e2 6e3f

network.5.bias f4 [99]
-0.4088572 -0.32993898 -0.19058621 -0.23706871 -0.30607238 -0.400604 -0.24736227 -0.4076531
-0.33511093 -0.27562082 -0.2707021 -0.18035313 -0.372229 -0.25035468 -0.31493908 -0.33084348
-0.43383068 -0.3088855 -0.43492422 -0.44089267 -0.27142724 -0.33102307 -0.39051554 -0.31538528
-0.41915664 -0.3092332 -0.17838298 -0.24443701 -0.26781985 -0.24580154 -0.40901163 -0.27008894
-0.15488267 -0.28105864 -0.35349426 -0.24473757 -0.4465524 -0.39142525 -0.20702393 -0.29388884
-0.34814268 -0.34378254 -0.36895326 -0.26587594 -0.39740005 -0.35872576 -0.37174308 -0.3532992
-0.31319582 -0.2540446 -0.40246966 -0.22602849 -0.30882534 -0.42930576 -0.30295724 -0.27001154
-0.3343321 -0.2814936 -0.21696843 -0.34699687 -0.29643896 -0.4054307 -0.40104684 -0.32271352
-0.29954362 -0.23258859 -0.22291559 -0.19010668 -0.28582847 -0.3249077 -0.3774676 -0.27421403
-0.22261764 -0.27904812 -0.35605752 -0.34715378 -0.31216782 -0.33365518 -0.21723817 -0.25402886
-0.24862969 -0.36115804 -0.2734042 -0.35158956 -0.31269187 -0.33594742 -0.39771238 -0.2440504
-0.48007625 -0.3395841 -0.3382617 -0.34277406 -0.24150936 -0.37547916 -0.17862836 -0.28998795
-0.28830972 -0.34442574 -0.20458561
00000000: bb55 d1be c3ed a8be 0829 43be 24c2 72be
00000010: 85b5 9cbe f81b cdbe 894c 7dbe e8b7 d0be
00000020: a993 abbe 2c1e 8dbe 7799 8abe 7eae 38be
00000030: cd94 bebe 7d2e 80be b23f a1be 5164 a9be
00000040: 0e1f debe 3e26 9ebe 63ae debe afbc e1be
00000050: 83f8 8abe db7b a9be a7f1 c7be 2e7a a1be
00000060: b39b d6be d053 9ebe 07aa 36be b24d 7abe
00000070: af1f 89be 66b3 7bbe f969 d1be 1949 8abe
00000080: 9099 1ebe ebe6 8fbe 33fd b4be 7c9c 7abe
00000090: 84a2 e4be e468 c8be 15fe 53be 9978 96be
000000a0: c23f b2be 4404 b0be 71e7 bcbe e420 88be
000000b0: 0578 cbbe e7aa b7be 1c55 bebe a2e3 b4be
000000c0: 345b a0be 2212 82be 8110 cebe 0374 67be
000000d0: 5b1e 9ebe f7cd dbbe 361d 9bbe f43e 8abe
000000e0: 942d abbe ee1f 90be f92c 5ebe 93a9 b1be
000000f0: d9c6 97be 9d94 cfbe 0356 cdbe b53a a5be
00000100: c85d 99be b42b 6ebe fc43 64be 53ab 42be
00000110: 1c58 92be 4d5a a6be 6f43 c1be c865 8cbe
00000120: e1f5 63be 65df 8ebe 2c4d b6be 24be b1be
00000130: 76d4 9fbe dad4 aabe af73 5ebe 1210 82be
00000140: c898 7ebe b5e9 b8be a3fb 8bbe 8c03 b4be
00000150: 2619 a0be 4d01 acbe f5a0 cbbe 59e8 79be
00000160: 8ecc f5be f8dd adbe a330 adbe 1580 afbe
00000170: 3b4e 77be ce3e c0be 5aea 36be 4d79 94be
00000180: 559d 93be 9258 b0be e47e 51be

network.5.running_mean f4 [99]
-0.6912489 -0.32891348 0.2561579 -0.47442785 -0.44917148 -0.8866846 -0.19510378 -0.2938083
-0.66521263 -0.5244919 -0.24425171 0.3743891 -0.35326603 -0.31946573 -0.54090464 -0.8220152
-0.4452342 0.16836762 -0.6601705 -0.51381737 -0.00846751 -0.3551591 -0.7325242 -0.24516386
-0.89651406 -0.42671752 -0.00542828 -0.36606643 -0.62558365 0.15995207 -0.31172308 -0.16506402
-0.6571785 -0.45956168 -0.89728653 0.14305507 -0.94090337 -0.7972529 -0.5494973 0.06667691
0.07127913 -0.008596442 -0.41105142 -0.14155497 -0.47974634 -0.23150569 -1.0403402 -0.13056605
-0.61470413 -0.59755105 -0.39289293 -0.12288411 -0.33429462 -0.8117941 -0.7292764 -0.119137354
0.07288931 -0.8135958 0.07196577 -0.6235431 -0.028551877 -0.9477341 -0.38523445 0.033374242
-0.48477408 -0.11763236 0.43595812 0.24552222 -0.34027165 0.096020356 -0.6703923 -0.7717762
0.17114295 0.38316673 -0.40797144 -0.55043095 0.124784894 -0.7053273 -0.3996548 -0.3394261
0.28465354 -0.33237988 0.005804432 -0.69938165 0.57803875 -0.5404344 -0.78198326 -0.11279739
-0.7904765 -0.37914437 -0.32376876 -0.5541579 0.0717832 -0.5655506 0.044403356 0.2714953
-0.019522494 -0.64014816 0.07939076
00000000: b0f5 30bf 5967 a8be 2127 833e 35e8 f2be
00000010: cef9 e5be c3fd 62bf 49c9 47be 0b6e 96be
00000020: 604b 2abf 1a45 06bf 1f1d 7abe eeaf bf3e
00000030: 49df b4be 0391 a3be ba78 0abf 976f 52bf
00000040: bdf5 e3be 9068 2c3e ef00 29bf 8989 03bf
00000050: 50bb 0abc 6ad7 b5be b586 3bbf 3c0c 7bbe
00000060: f281 65bf b87a dabe b7df b1bb 0f6d bbbe
00000070: 4026 20bf 7aca 233e 2b9a 9fbe 8b06 29be
00000080: da3c 28bf ab4b ebbe 92b4 65bf 077d 123e
00000090: 0bdf 70bf c418 4cbf dbab 0cbf e78d 883d
000000a0: cbfa 913d 17d8 0cbc 5575 d2be c9f3 10be
000000b0: 50a1 f5be d40f 6dbe de29 85bf 1bb3 05be
000000c0: 405d 1dbf 1bf9 18bf 4329 c9be aaaa fbbd
000000d0: aa28 abbe bdd1 4fbf dcb1 3abf 49fe f3bd
000000e0: fe46 953d d047 50bf ca62 933d 85a0 1fbf
000000f0: a0e5 e9bc b49e 72bf 733d c5be 6eb3 083d
00000100: 4f34 f8be 3ce9 f0bd e735 df3e 2d6a 7b3e
00000110: 1638 aebe 52a6 c43d d49e 2bbf 2093 45bf
00000120: 1940 2f3e 6e2e c43e a2e1 d0be 0be9 0cbf
00000130: 398f ff3d 5490 34bf 8e9f ccbe 42c9 adbe
00000140: 1cbe 913e b22d aabe 1b33 be3b ad0a 33bf
00000150: 59fa 133f e959 0abf 0e30 48bf 5102 e7bd
00000160: ab5c 4abf 361f c2be 05c5 a5be 4bdd 0dbf
00000170: 1203 933d edc7 10bf 4be0 353d 6f01 8b3e
00000180: a3ed 9fbc c0e0 23bf 9f97 a23d

network.5.running_var f4 [99]
1.156808 0.9529902 0.9799747 1.1103544 1.1064568 1.2991205 1.0670444 0.6964698
0.9951613 1.0867379 0.9286431 0.91711986 1.068024 1.1094157 1.2949388 1.1778715
0.72207165 0.9115583 1.2153343 0.9717504 0.81708884 1.0260129 0.9891205 0.91388243
0.88829666 1.1269733 1.0699545 0.9021917 1.1781255 0.84123665 0.8042633 0.84920853
1.3529551 0.9987304 1.0291594 0.90062976 1.0222324 1.0835766 0.8655129 0.84832746
0.7990723 1.0039428 0.8457837 0.9720211 1.0612986 1.0585493 1.0535408 1.1050045
0.8748786 1.0221099 0.96866596 1.0729995 1.2451084 0.9201701 0.98465943 0.9045879
0.75563556 0.98148847 1.0493203 0.88525325 0.7353409 1.0084146 1.186187 0.8645542
0.9762768 1.0523651 0.7523467 0.91202766 1.0902228 0.8622763 0.7774679 1.189495
0.9234117 0.83848774 0.9348163 1.233392 1.0270526 1.1872042 1.0244818 1.1139084
0.64711267 1.0582378 0.7066092 1.1149814 0.6671282 1.2622828 1.1596754 0.9048034
0.9473348 1.2726737 1.2291352 1.0462395 0.9948148 0.961166 1.2099456 0.6841071
0.8727117 1.1961198 1.1090881
00000000: 4912 943f 2af7 733f 9fdf 7a3f 1820 8e3f
00000010: 60a0 8d3f 9549 a63f e994 883f d84b 323f
00000020: e4c2 7e3f 3a1a 8b3f 8ebb 6d3f 5ec8 6a3f
00000030: 03b5 883f 5501 8e3f 8ec0 a53f 7ec4 963f
00000040: b0d9 383f e25b 693f 1390 9b3f a2c4 783f
00000050: bc2c 513f 6454 833f 0037 7d3f 33f4 693f
00000060: 6967 633f a940 903f 45f4 883f 09f6 663f
00000070: d1cc 963f 495b 573f 33e4 4d3f bb65 593f
00000080: a22d ad3f ccac 7f3f 7fbb 833f ac8f 663f
00000090: 83d8 823f a3b2 8a3f 4192 5d3f fd2b 593f
000000a0: 0190 4c3f 3381 803f 4885 583f 60d6 783f
000000b0: a2d8 873f 8b7e 873f 6dda 863f ca70 8d3f
000000c0: 0bf8 5f3f 7fd4 823f 7efa 773f 0c58 893f
000000d0: b65f 9f3f 4590 6b3f a412 7c3f 1393 673f
000000e0: 5571 413f d442 7b3f 2150 863f f59f 623f
000000f0: 4d3f 3c3f bb13 813f fad4 973f 6d53 5d3f
00000100: 47ed 793f e6b3 863f cb99 403f a57a 693f
00000110: 6c8c 8b3f 24be 5c3f 2308 473f 5f41 983f
00000120: b664 6c3f 22a7 563f 1f50 6f3f cadf 9d3f
00000130: 7676 833f 4ff6 973f 3822 833f 8d94 8e3f
00000140: 2da9 253f 5674 873f 57e4 343f b6b7 8e3f
00000150: eac8 2a3f 7c92 a13f 3e70 943f 32a1 673f
00000160: 8984 723f f9e6 a23f 4d54 9d3f 2deb 853f
00000170: 2fac 7e3f fa0e 763f 7fdf 9a3f a521 2f3f
00000180: 096a 5f3f 741a 993f 99f6 8d3f
